best_model_cnn-ae.pth (torch, 28102 bytes, 8 tensors)

weight f4 [8, 3, 5, 5]
0	0x3d4ffa5f	0.05077588
1	0x3c805d8d	0.015669608
2	0xbd80491e	-0.06263946
3	0xbe5c940a	-0.21540847
4	0xbd9a09da	-0.0752141
5	0xbd7354cd	-0.059407044
6	0xbd9e53bb	-0.07730814
7	0xbdb653f4	-0.089027315
8	0xbe86d6bf	-0.26335713
9	0xbe2d8d22	-0.16948369
10	0xbc28a025	-0.010292088
11	0xbdaa4f16	-0.08315866
12	0xbeba7195	-0.3641478
13	0xbe9c4dd4	-0.30528128
14	0xbe732369	-0.23743977
15	0xbe0d8b24	-0.13822609
16	0xbe830cd7	-0.25595734
17	0xbeb286df	-0.34868523
18	0xbed9f6b9	-0.42571047
19	0xbeb64f02	-0.35607153
20	0xbdcd6bee	-0.100303516
21	0xbe932a98	-0.28743434
22	0xbe85c738	-0.26128554
23	0xbe853b5c	-0.2602185
24	0xbe2cb275	-0.16864951
25	0x3e358191	0.17725207
26	0x3d044824	0.03229536
27	0xbd006ed3	-0.03135569
28	0xbd92217e	-0.071352944
29	0x3d06e08a	0.03292898
30	0x3d0b3c23	0.033992898
31	0xbd13c049	-0.03607205
32	0xbe4abfd6	-0.19799742
33	0xbe3f3c3e	-0.18675324
34	0xbdee9c25	-0.11650876
35	0x3d0cd21c	0.034380063
36	0xbce7b941	-0.028286578
37	0xbe40e106	-0.1883584
38	0xbe9954ec	-0.29947603
39	0xbe4456d6	-0.1917375
40	0xbd9969de	-0.07490896
41	0xbe657b7d	-0.22410388
42	0xbdf72dbf	-0.12069272
43	0xbe87addf	-0.2649984
44	0xbe7d0e40	-0.24712467
45	0xbdd10cfa	-0.10207553
46	0xbdccf03a	-0.10006757
47	0xbe338cd0	-0.17534184
48	0xbe0d0dda	-0.13774815
49	0xbda23bd1	-0.07921565
50	0xbcfbd9ea	-0.030743558
51	0xbd99e82f	-0.07514989
52	0xbdcc5066	-0.09976272
53	0xbdaf6dc7	-0.0856586
54	0xbc099d0c	-0.008399259
55	0x3e122860	0.14273214
56	0xbdc7e525	-0.09760503
57	0xbdba1946	-0.09086852
58	0xbdcc7254	-0.09982744
59	0xbe696c10	-0.22795129
60	0x3c082263	0.00830898
61	0xbe2833f0	-0.16426063
62	0xbe6219bd	-0.22080131
63	0xbe2ba0fc	-0.1676063
64	0xbe5aab1b	-0.21354334
65	0xbc6bac3d	-0.0143843265
66	0xbe32f1bb	-0.17475025
67	0xbe9fbb9b	-0.3119782
68	0xbe7c31cd	-0.24628372
69	0xbe120724	-0.14260536
70	0xbcf61267	-0.030038072
71	0xbd8c1f8c	-0.068419546
72	0xbdaff927	-0.08592444
73	0xbdf83c73	-0.12120905
74	0xbe4774df	-0.19478177
75	0x3d6a5f4a	0.05721978
76	0x3d0b983d	0.034080733
77	0xbd17fbc0	-0.037105322
78	0x3ceac975	0.028660515
79	0x3dc76f8a	0.09738071
80	0x3d8f2506	0.069894835
81	0x3de3567c	0.1110048
82	0x3d83e141	0.06439448
83	0x3c6dc420	0.014512092
84	0xbd031cd0	-0.0320099
85	0xbdcc582c	-0.09977755
86	0x3df655e2	0.120280996
87	0x3d3e0f75	0.04640146
88	0xbd81f35c	-0.06345245
89	0xbd128f38	-0.035781115
90	0xbdcceea9	-0.10006458
91	0x3d43931e	0.047747724
92	0xbdbdf354	-0.09274927
93	0xbd88a2e8	-0.06671697
94	0x3dbd0f57	0.092314415
95	0x3da97795	0.082747616
96	0x3c5e9279	0.0135847265
97	0xbdb7b67c	-0.08970353
98	0x3d266256	0.040621124
99	0xbda66902	-0.081254974
100	0xbdaae97a	-0.08345313
101	0xbd82d191	-0.06387628
102	0xbe3076df	-0.17232846
103	0xbc421e04	-0.011847977
104	0xbe1d0a8b	-0.15336053
105	0xbe340765	-0.17580946
106	0xbd68f38d	-0.056872893
107	0xbe15e058	-0.14636362
108	0x3c43d2c3	0.011952105
109	0x3cf9c850	0.030491024
110	0xbd8e54f6	-0.06949799
111	0xbc41a477	-0.011818997
112	0xbe0b60a2	-0.13611081
113	0xbd80d62f	-0.06290852
114	0xbdcca776	-0.09992878
115	0xbe00f9ed	-0.12595339
116	0xbdba5725	-0.09098653
117	0xbe0d0a69	-0.13773502
118	0xbdbc68dc	-0.09199688
119	0xbdefb64d	-0.11704693
120	0xbe0497b5	-0.12948497
121	0xbbf747e8	-0.0075464137
122	0xbd668521	-0.056279305
123	0xbd34baef	-0.044123586
124	0xbda8f9a8	-0.08250743
125	0x3e1bbd76	0.15208992
126	0x3caaf3ae	0.020868149
127	0x3dac5371	0.08414353
128	0xbcc581ac	-0.024109684
129	0x3e427154	0.18988544
130	0x3d8ad5f4	0.067790896
131	0x3ce925dd	0.028460437
132	0x3d013602	0.031545646
133	0x3e18d19b	0.14923708
134	0x3e3fc920	0.18729067
135	0xbcfc716e	-0.030815806
136	0x3e10ef01	0.14153673
137	0x3d72dda8	0.05929342
138	0x3e1aa75d	0.15102907
139	0x3de26f0f	0.11056339
140	0x3df636f7	0.120222025
141	0xbca0c92a	-0.019627172
142	0x3e10b248	0.14130509
143	0x3e1c0e55	0.15239842
144	0x3df2a762	0.11848332
145	0x3e2a44c6	0.16627797
146	0x3dbf63f1	0.09345234
147	0x3dc348d9	0.09535379
148	0x3b8e2d1c	0.0043388736
149	0x3dcf9d06	0.10137372
150	0x3d629290	0.055315554
151	0x3d469aaf	0.04848736
152	0x3e092630	0.13393474
153	0xbbca6a12	-0.0061771953
154	0x3d29600c	0.041351363
155	0x3ce793ed	0.028268779
156	0x3e0e7d8f	0.13915084
157	0xbc1eb1f8	-0.009685986
158	0xbd211198	-0.03932342
159	0x3e085555	0.13313802
160	0x3ca3ed43	0.020010596
161	0xbd832491	-0.06403459
162	0xbbe4e215	-0.006984959
163	0x3e070d5c	0.1318869
164	0xbb7a2bb7	-0.0038173029
165	0x3d5e3d30	0.05425757
166	0x3d695fd7	0.056976166
167	0xbd275e70	-0.040861547
168	0x3dd40a2f	0.10353505
169	0x3e28c155	0.1648
170	0x3dbdb4f8	0.09263033
171	0x3d8177e8	0.063216984
172	0xbce01190	-0.027352124
173	0x3e018f34	0.12652284
174	0xbc47fd71	-0.012206421
175	0xbd10c527	-0.03534427
176	0xbd5abcea	-0.05340282
177	0x3bf0fb36	0.0073541654
178	0xbc8500ad	-0.016235674
179	0x3d46cf6e	0.048537664
180	0x3bdb9a77	0.0067017633
181	0x3da1f45f	0.07907938
182	0x3d92d323	0.071691774
183	0x3a021146	0.00049616804
184	0xbd178c2b	-0.03699891
185	0xbd80c0cd	-0.06286774
186	0xbc9d5f76	-0.019210558
187	0xbda39bff	-0.07988738
188	0x3d00acf2	0.031414934
189	0xba9e3f13	-0.0012073241
190	0x3d4715f6	0.048604928
191	0x3dd36ed6	0.10323875
192	0xbccf4593	-0.02530173
193	0x3e142970	0.14468932
194	0x3d8a0b96	0.06740491
195	0xbb740c9c	-0.003723896
196	0xbc9615ef	-0.018321006
197	0x3dcf0643	0.10108616
198	0xbd2cee17	-0.042219248
199	0xbd293280	-0.041307926
200	0xbad302ac	-0.0016098819
201	0xbdf1f38b	-0.1181403
202	0xbd8c7213	-0.068576954
203	0xbe0d521c	-0.13800853
204	0xbd057508	-0.032582313
205	0xbc539b5c	-0.0129154585
206	0xbdf4d15d	-0.119539954
207	0x3cf48ee0	0.029853284
208	0xbe1ce397	-0.15321194
209	0xbe164d4c	-0.14677924
210	0xbe0d6c88	-0.13810933
211	0xbddfceb0	-0.109280944
212	0xbe2df9de	-0.16989848
213	0xbcfeb976	-0.031094294
214	0xbd36e99c	-0.04465638
215	0xbd1f8e45	-0.03895404
216	0xbdcd28ce	-0.100175485
217	0xbdd92fc0	-0.10604811
218	0xbd5cf0f8	-0.053940743
219	0xbd6993c1	-0.057025675
220	0xbd112c56	-0.035442673
221	0xbd8ce4d0	-0.0687958
222	0xbdf8af90	-0.12142861
223	0xbd405c90	-0.046963274
224	0xbc58634e	-0.01320727
225	0x3cb848ce	0.022495653
226	0x3c742a3d	0.0149026485
227	0x3c8366be	0.016040202
228	0x3d9041ed	0.07043824
229	0x3cbfce28	0.023413733
230	0xbe1048bb	-0.14090244
231	0xbdfecd9a	-0.12441559
232	0x3c57038f	0.013123407
233	0x3db9493a	0.0904717
234	0xbe060ad1	-0.13090064
235	0x3d415054	0.047195747
236	0xbd39c15e	-0.045350425
237	0xbda2c2fe	-0.07947348
238	0x392ba99a	0.00016371012
239	0xbc9e2949	-0.019306796
240	0xbde90674	-0.11378184
241	0xbba49b54	-0.0050233994
242	0x3dbd1279	0.09232039
243	0x3c88f35f	0.01671761
244	0x3d3f8c49	0.046764646
245	0xbd411f71	-0.047149125
246	0xbd83c0a5	-0.064332284
247	0xbe085c1f	-0.13316391
248	0x3ab6f60c	0.0013958826
249	0xbe2a6d61	-0.16643287
250	0xbccb11cb	-0.024788758
251	0x3d88366d	0.06651006
252	0x3d863bcf	0.06554376
253	0x3d8195b6	0.06327383
254	0x3d165d54	0.0367101
255	0xbc910af7	-0.017705424

bias f4 [8]
0	0x3dbbdab0	0.09172571
1	0x3ef3a190	0.475842
2	0x3f0971af	0.5368909
3	0xbeabcce5	-0.3355476
4	0x3efdeb92	0.49593788
5	0xbee3e8f6	-0.44513673
6	0xbf27b65e	-0.65512645
7	0x3f34c5a3	0.7061407

weight f4 [8, 8, 5, 5]
0	0x3d861325	0.0654662
1	0xbda5a138	-0.08087391
2	0xbdc62eae	-0.09676872
3	0xbd5cb242	-0.053880937
4	0xbe1cd08e	-0.15313932
5	0xbd2889d3	-0.041147064
6	0xbd1a26b5	-0.03763457
7	0x3d894ed6	0.0670449
8	0x3e675d93	0.2259429
9	0xbd7bba1f	-0.061456796
10	0xbdfc6be6	-0.123252675
11	0x3dc48a88	0.09596735
12	0x3ebbf15a	0.36707574
13	0x3ece4525	0.40287128
14	0xbdc09a9e	-0.09404491
15	0xbd012fbc	-0.031539664
16	0x3e48d693	0.19613104
17	0x3eb195ea	0.34684688
18	0x3e819b42	0.25313765
19	0xbdfe8087	-0.124268584
20	0xbe38dd38	-0.18053138
21	0xbdefb492	-0.11704363
22	0xbd649bd8	-0.055812687
23	0xbd3378ab	-0.04381625
24	0xbe69bee5	-0.22826727
25	0x3c82613c	0.015915506
26	0x3ddba7f6	0.107253954
27	0x3d97b4b7	0.074075155
28	0x3ddbb7cc	0.10728416
29	0xbd36e20c	-0.04464917
30	0x3d9d61e5	0.076846875
31	0x3dd4c71c	0.103895396
32	0x3d44e8b8	0.0480735
33	0x3d444b5f	0.047923442
34	0x3c2902cf	0.010315611
35	0x3dc10ea0	0.094266176
36	0x3d07f611	0.03319365
37	0x3e1b4c10	0.15165734
38	0x3df3044c	0.11866054
39	0x3d9bc11c	0.07605192
40	0x3d0382d9	0.032107208
41	0x3d4227cb	0.04740123
42	0x3d7538e1	0.059868697
43	0x3da656ac	0.08122
44	0x3c86cac9	0.016454117
45	0xbd1e2a54	-0.038614586
46	0x3c175d8d	0.009238613
47	0x3db5aa6b	0.08870395
48	0x3d9e64ef	0.07734095
49	0xbbbee044	-0.0058250744
50	0x3d166b4f	0.03672343
51	0x3ca9711c	0.020683818
52	0xbd8cfee6	-0.068845555
53	0x3cd26e9b	0.025687506
54	0xbd720020	-0.05908215
55	0xbd88a660	-0.066723585
56	0x3d360d35	0.04444619
57	0x3d6ec68c	0.058294818
58	0x3da80e43	0.08205845
59	0x3dbb1607	0.09135061
60	0xbd164bc4	-0.03669335
61	0x3dac6890	0.08418381
62	0x3d8f2f42	0.069914356
63	0x3db7cd6f	0.0897473
64	0x3e24b1fc	0.1608352
65	0xbcb9432a	-0.022615034
66	0x3d9cc6cc	0.07655105
67	0x3debe935	0.1151909
68	0x3e11303d	0.14178558
69	0x3e20081f	0.15628098
70	0xbdb09745	-0.086226024
71	0x3db61db8	0.08892387
72	0x3dffef90	0.12496865
73	0x3dcff801	0.10154725
74	0x3ce65603	0.028117185
75	0xbd93572d	-0.07194362
76	0xbcc5b24a	-0.024132866
77	0x3d6d4fab	0.057937305
78	0xbc560bc2	-0.013064327
79	0x3d9548b6	0.07289259
80	0x3db35209	0.08755881
81	0x3d8ff476	0.07029049
82	0xbde56011	-0.11199964
83	0xbdaf4766	-0.0855854
84	0xbdc7d401	-0.097572334
85	0x3da80a97	0.08205145
86	0xbb726bff	-0.003699064
87	0xbe5db39f	-0.21650551
88	0xbe86e5b2	-0.2634712
89	0xbdcdce84	-0.10049155
90	0x3da33427	0.07968932
91	0xbde3c7d1	-0.11122096
92	0xbe5802f0	-0.2109487
93	0xbea0a6b4	-0.31377184
94	0xbe084f16	-0.13311419
95	0xbc482576	-0.012215963
96	0x3c993fc6	0.018707167
97	0xbde08fc6	-0.109649226
98	0xbe0aa9f4	-0.13541394
99	0xbc20e756	-0.00982078
100	0xbcf46146	-0.02983154
101	0x3d55903d	0.05213951
102	0x3d145f45	0.03622367
103	0x3d1dc1af	0.03851479
104	0x3d9d141d	0.07669852
105	0x3cb7aa20	0.02241999
106	0x3d8b5c79	0.06804747
107	0x3d953659	0.072857566
108	0x3d529df8	0.051420182
109	0x3d0c3514	0.034230307
110	0x3d9670a2	0.07345702
111	0x3da0859c	0.07837984
112	0x3dab6787	0.08369356
113	0x3e19c4a5	0.1501642
114	0x3d7c90c4	0.061661497
115	0x3daa99e7	0.08330136
116	0x3d7bbd19	0.061459634
117	0x3e076060	0.13220358
118	0x3e0382ec	0.12842911
119	0x3d036ffb	0.032089215
120	0xbced2dd4	-0.028952517
121	0xbb9e8cb3	-0.00483855
122	0x3d076801	0.03305817
123	0xbd727ac0	-0.059199095
124	0xbd87a03b	-0.066223584
125	0xbd52e116	-0.05148419
126	0x3d52c16b	0.05145399
127	0xbd01e181	-0.031709198
128	0xbd51236c	-0.05105917
129	0xbba86259	-0.005138677
130	0xbb63af5b	-0.0034741971
131	0xbdacfee0	-0.08447051
132	0xbe47716d	-0.19476862
133	0xbe83d1ab	-0.257459
134	0xbcd6565d	-0.026164228
135	0xbd63da65	-0.0556282
136	0xbdfa27f8	-0.12214655
137	0xbe96f35b	-0.2948254
138	0xbe9647b9	-0.29351595
139	0xbdbf0559	-0.09327192
140	0x3ac4a813	0.0015003703
141	0xbdfcca79	-0.12343306
142	0xbe8315cf	-0.25602576
143	0xbe8152fb	-0.25258622
144	0x3cc15c42	0.023603562
145	0x3dbe75ed	0.09299836
146	0x3db7f94c	0.089830965
147	0x3d1573d7	0.036487427
148	0x3d1f7588	0.038930446
149	0x3ddf0aa3	0.10890701
150	0xbd9846df	-0.074353926
151	0x3bb3e357	0.0054897475
152	0x3ca6897a	0.020329226
153	0x3d76f5c7	0.060292985
154	0x3b86fbf5	0.004119391
155	0xbdabe08c	-0.08392438
156	0xbcd968a4	-0.026539154
157	0xbd06e478	-0.03293273
158	0xbdb308bf	-0.087419026
159	0xbd95f665	-0.07322387
160	0xbd63c93f	-0.055611845
161	0xbe22a997	-0.15885006
162	0xbe80d0c9	-0.2515929
163	0xbea4781c	-0.32122886
164	0xbe6c36c6	-0.2306777
165	0xbdd92caf	-0.10604226
166	0xbe023e90	-0.12719178
167	0xbe9d5e93	-0.30736217
168	0xbec5391c	-0.38520133
169	0xbe1ed82f	-0.15512155
170	0xbd7fa529	-0.06241337
171	0xbd9408d5	-0.07228247
172	0xbe36c8da	-0.17850056
173	0xbe7737f4	-0.24142438
174	0xbcac26cf	-0.0210146
175	0x3e0a6afc	0.13517374
176	0xbd9d4fee	-0.07681261
177	0xbdc20ecc	-0.094754785
178	0x39e11608	0.0004293176
179	0xbdd9d79a	-0.10636826
180	0x3c5fe45f	0.013665288
181	0xbcad352a	-0.021143515
182	0x3d9b9fd7	0.075988464
183	0x3dfe1de7	0.12408047
184	0xbd1b8bda	-0.03797517
185	0x3d433447	0.047657277
186	0x3b2907e5	0.002579206
187	0x3e15ac8e	0.14616606
188	0x3e3c87e8	0.18411219
189	0x3dba6f21	0.091032274
190	0x3c9e8871	0.01935217
191	0x3d48ca5c	0.04902111
192	0x3e6ae29f	0.22938012
193	0x3e277a1c	0.16355175
194	0xbcc8719e	-0.02446824
195	0xbd99a372	-0.07501878
196	0xbdb4bb89	-0.08824832
197	0x3db0ae72	0.08627023
198	0xbc189044	-0.009311739
199	0xbc9b5716	-0.018962424
200	0x3d39efb8	0.04539463
201	0x3ca9a1af	0.02070698
202	0x3c5f0476	0.013611903
203	0x3d0c360a	0.034231223
204	0x3d8339bf	0.064074986
205	0x3d6d492f	0.05793112
206	0x3d67ee8b	0.056623977
207	0xbd67d133	-0.056595992
208	0x3aed5256	0.0018106203
209	0x3d5b460e	0.053533606
210	0x3b77b916	0.0037799529
211	0x3d2f63cd	0.042819787
212	0xbd8a95e2	-0.06766869
213	0x3bb9884f	0.005662001
214	0xbd5ad846	-0.05342891
215	0x3dbbfb47	0.09178787
216	0xbda01945	-0.0781732
217	0xbd9e52e2	-0.077306524
218	0xbd96b009	-0.07357795
219	0x3df228ef	0.11824214
220	0x3d9a4d8f	0.075343244
221	0xbd3ab12b	-0.045579117
222	0x3d38fd17	0.04516324
223	0x3d32b02c	0.04362504
224	0x3e18348a	0.14863792
225	0x3c25b061	0.010112853
226	0x3d2a99d2	0.0416506
227	0xbd94c08e	-0.072632894
228	0xbc525635	-0.012837936
229	0xbc0d5157	-0.00862535
230	0xbca01af4	-0.019544102
231	0x3d2f7328	0.04283443
232	0x3c5e61f9	0.013573163
233	0xbdc52285	-0.09625725
234	0x3cd68dfd	0.026190752
235	0x3c0e7ff1	0.008697496
236	0xbdcf929b	-0.10135385
237	0xbd2b5127	-0.04182544
238	0xbd9dedda	-0.07711382
239	0xbc7e20a9	-0.0155107165
240	0xbd8948ac	-0.06703314
241	0xbc9f6a7c	-0.019459955
242	0xbda527a2	-0.080642
243	0xbd592ba7	-0.053020146
244	0xbd1c01d9	-0.0380877
245	0x3c57e554	0.013177235
246	0x3cd1a972	0.025593493
247	0xbd98f3f3	-0.074684046
248	0xbd1c78dd	-0.0382012
249	0xbce9563b	-0.0284835
250	0xbd095ec6	-0.03353765
251	0xbcb9e27d	-0.022691006
252	0xbca78d2b	-0.020453056
253	0xbddf7ef5	-0.10912887
254	0xbd5f2ac3	-0.05448414
255	0xbda84611	-0.08216489

bias f4 [8]
0	0x3eb708bb	0.35748848
1	0x3d9719b6	0.07377951
2	0xbee13663	-0.43986806
3	0xbe56cd5a	-0.20976773
4	0x3f09f8cb	0.5389525
5	0xbe7df7e6	-0.24801597
6	0x3f00e1c1	0.50344473
7	0x3f130b85	0.5743945

weight f4 [8, 8, 6, 6]
0	0x3c5d6976	0.013513913
1	0x3e20047f	0.15626715
2	0xbd224a19	-0.039621446
3	0xbb181a8b	-0.002320918
4	0x3d8d0178	0.06885046
5	0x3d05a86a	0.032631315
6	0x3daea9ae	0.085284576
7	0x3de2ab6e	0.11067854
8	0xbd899a3f	-0.06718873
9	0x3d244fae	0.04011505
10	0xbbcf5ffd	-0.0063285814
11	0x3dc189e5	0.094501294
12	0xbc200a17	-0.009768031
13	0x3dbfd943	0.09367611
14	0xbe12d47c	-0.14338869
15	0xbe43467b	-0.19069855
16	0x3d7ecd28	0.06220737
17	0xbd60081d	-0.054695237
18	0x3e01e328	0.1268431
19	0xbd0d3638	-0.034475535
20	0xbd995acd	-0.07488022
21	0xbd00a5bd	-0.03140806
22	0x3da251ba	0.07925744
23	0x3d961f6d	0.07330213
24	0x3ddde309	0.10834319
25	0x3df386a2	0.118909135
26	0x3d17d9bb	0.03707288
27	0x3d2a6abc	0.041605696
28	0x3dc46c5e	0.09590982
29	0xbcfb96c1	-0.030711534
30	0x3d8a7ae3	0.0676172
31	0xbca90055	-0.020630041
32	0x3d548bb7	0.051891055
33	0x3cd2e52d	0.025744045
34	0x3dd3bc10	0.103386045
35	0xbd2c5905	-0.042077083
36	0x3ce01d84	0.027357824
37	0xbd7e8ca9	-0.062145863
38	0x3b9b7bfa	0.004745004
39	0xbdd68003	-0.10473635
40	0xbd1b319d	-0.03788911
41	0xbd55bfb3	-0.05218477
42	0xbc9c0e5c	-0.019049816
43	0x3d2f3d04	0.0427828
44	0x3c548690	0.012971535
45	0x3da8a87d	0.082352616
46	0x3c627b5d	0.013823357
47	0xbc906bc3	-0.01762951
48	0xbd89119b	-0.06692811
49	0x3d772ae5	0.06034364
50	0x3e45aaba	0.19303408
51	0x3e4477dc	0.19186348
52	0x3d129eed	0.035796095
53	0xbce9397b	-0.028469792
54	0xbd04fe8c	-0.032469317
55	0x3d75d640	0.060018778
56	0x3e67f1ae	0.22650787
57	0x3daf94e1	0.08573318
58	0xbcc0b05a	-0.023521591
59	0xbd860a4c	-0.06544933
60	0xbc0ac1a6	-0.008469021
61	0xbd209798	-0.03920707
62	0x3dbb717d	0.091525055
63	0xbcd8c732	-0.026462171
64	0x3c78d3e8	0.015187241
65	0xbc8cf6f6	-0.017207604
66	0xbddebfc1	-0.10876418
67	0x3cc82f59	0.02443664
68	0xbcb53d76	-0.022124033
69	0x3d1aa959	0.03775916
70	0x3b4d78ff	0.0031352637
71	0x3e077572	0.13228396
72	0x3d8cdefb	0.06878468
73	0x3daf017a	0.085452035
74	0x3ca488cb	0.02008476
75	0xbce0157f	-0.027354
76	0x3b4bdb73	0.0031106144
77	0xbd3bcc21	-0.04584897
78	0x3d7b3ae0	0.061335444
79	0x3defb490	0.117043614
80	0xbe092c37	-0.13395773
81	0xbc2d9061	-0.010593505
82	0x3dd2c2cf	0.10291063
83	0x3db80d87	0.08986955
84	0x3e023454	0.12715274
85	0xbd4ee7e0	-0.050514102
86	0xbe3931f8	-0.18085468
87	0xbe712308	-0.2354852
88	0xbe2a00f4	-0.16601926
89	0xbd786d4a	-0.0606511
90	0x3d805d1d	0.0626776
91	0x3cd549bf	0.026036141
92	0xbe20ec84	-0.15715224
93	0xbde2afa8	-0.1106866
94	0x3df6069e	0.12012981
95	0x3d31cfd3	0.043411087
96	0x3e15c468	0.14625704
97	0x3dcb1f7d	0.09918115
98	0x3d64d21f	0.05586445
99	0xbd48f2a7	-0.049059536
100	0xbcfdc194	-0.030976094
101	0x3c51f9d3	0.01281591
102	0x3db50e7f	0.088406555
103	0x3df4ba27	0.11949568
104	0x3ddcf764	0.107893735
105	0x3df10988	0.11769396
106	0x3deb8041	0.11499072
107	0x3da4bc01	0.080436714
108	0x3c71085f	0.0147114685
109	0x39b404a3	0.0003433573
110	0x3df860d8	0.121278465
111	0x3b432e7c	0.0029782346
112	0x3e492563	0.19643168
113	0x3cdd137b	0.026986828
114	0x3bf5a0d5	0.0074959793
115	0x3dbf76b6	0.09348814
116	0xbd3e1399	-0.04640541
117	0x3dacd76b	0.08439525
118	0xbac6a9eb	-0.0015156841
119	0x3e2fe0e5	0.17175634
120	0xbca3eef9	-0.020011412
121	0xbdc71241	-0.097202785
122	0xbe1ad44c	-0.15120047
123	0xbe3caf81	-0.18426324
124	0x3dfd176d	0.12357984
125	0x3ab94eed	0.0014137902
126	0xbd55b1c0	-0.05217147
127	0xbdc65715	-0.09684578
128	0xbe1fd1fa	-0.15607443
129	0xbdbb6681	-0.091504104
130	0xbde26f9c	-0.11056444
131	0x3d16f7a7	0.036857273
132	0xbd1f7f3a	-0.038939692
133	0x3d5b54ce	0.053547673
134	0xbd31d370	-0.043414533
135	0x3d956ba8	0.072959244
136	0x3e0cf733	0.13766174
137	0x3dec409a	0.11535759
138	0xbde6b3b1	-0.11264742
139	0xbd9a3334	-0.075292975
140	0xbdf4b8e6	-0.11949329
141	0x3ca1396a	0.019680697
142	0xbda48ac3	-0.08034279
143	0x3c1c81a5	0.009552394
144	0xbcd71686	-0.026255857
145	0x3cd23ca2	0.025663678
146	0x3c99902b	0.018745502
147	0x3cafffd3	0.021484291
148	0x3d75ea28	0.060037762
149	0x3db1ecfd	0.0868778
150	0x3ca34e7b	0.019934883
151	0x3d37dbe5	0.044887442
152	0x3cd04a96	0.02542619
153	0x3b262e15	0.0025357057
154	0x3d939eba	0.07208009
155	0x3dc62904	0.09675792
156	0xbd1dc136	-0.03851434
157	0xbd870476	-0.06592648
158	0xbd16e142	-0.036835916
159	0xbdbd443b	-0.092415296
160	0x3c3f711a	0.01168468
161	0x3e18fa6e	0.14939281
162	0x3c7a9656	0.015294632
163	0xbd5f5ae5	-0.054530043
164	0xbe117626	-0.14205226
165	0xbd2b3908	-0.041802436
166	0x3e02c346	0.12769803
167	0x3e03bc86	0.12864885
168	0x3da0efa0	0.07858205
169	0x3d58faca	0.052973546
170	0x3c9cc96f	0.01913902
171	0x3e05ef84	0.13079649
172	0x3dcb7d9b	0.09936067
173	0x3e3be171	0.18347718
174	0x3d40efa8	0.047103554
175	0x3d732654	0.059362724
176	0x3d47b0be	0.04875254
177	0x3dac75a3	0.08420875
178	0x3ddfeba4	0.10933617
179	0x3d76b783	0.060233604
180	0xbca68dea	-0.020331342
181	0x3db097e5	0.086227216
182	0x3d0ba668	0.034094244
183	0x3e27a9cb	0.16373365
184	0x3e2e3305	0.1701165
185	0x3db54a6b	0.08852085
186	0x3c6c2da9	0.014415183
187	0x3d51c353	0.051211666
188	0x3d99d899	0.07512016
189	0x3d791d6c	0.060819075
190	0x3dc068c9	0.09394986
191	0x3d90626a	0.07050021
192	0x3d016803	0.031593334
193	0x3dbaa8f3	0.09114256
194	0xbd3a789d	-0.045525182
195	0xbd882551	-0.066477425
196	0x3c9286b8	0.017886505
197	0x3de9bd74	0.114130884
198	0x3d5c6972	0.053811498
199	0xbc32a545	-0.010903661
200	0xbdbb60dc	-0.09149334
201	0xbd137a08	-0.03600505
202	0x3db4d400	0.08829498
203	0x3db075eb	0.08616241
204	0x3e04b8cc	0.1296112
205	0x3d16f3a3	0.036853444
206	0xbc25b18b	-0.01011313
207	0x3dae42f7	0.08508866
208	0x3e237925	0.15964182
209	0x3df2cec3	0.11855843
210	0x3e14102f	0.14459299
211	0x3ddccceb	0.107812725
212	0x3d31a2c1	0.043368105
213	0x3d1edd5e	0.03878533
214	0x3d7ebc39	0.062191222
215	0x3d8355d7	0.06412857
216	0x3d8f4a01	0.06996537
217	0xbcd23a8e	-0.025662687
218	0x38880e8e	6.4876964e-05
219	0xbd0ee092	-0.034882136
220	0xbd160005	-0.036621112
221	0xbd32decf	-0.043669518
222	0xbd951080	-0.07278538
223	0xbc8f511b	-0.017494729
224	0x3d8c74da	0.06858225
225	0x3d1af1bf	0.037828203
226	0x3d260a99	0.04053745
227	0xbb65c272	-0.0035058525
228	0xbced8746	-0.028995167
229	0x3dcb9261	0.09940029
230	0x3e590a25	0.21195276
231	0x3e333cee	0.17503712
232	0x3ca859b5	0.020550588
233	0x3c54b0ad	0.012981576
234	0xbc926dff	-0.017874716
235	0x3d3f5808	0.046714813
236	0x3dba37e5	0.09092692
237	0x3db91ed7	0.09039085
238	0xbc71468e	-0.014726294
239	0x3c70a7ba	0.014688427
240	0xbda1ec58	-0.07906407
241	0x3d457307	0.0482054
242	0x3cbafa95	0.022824565
243	0x3ca3999b	0.019970706
244	0x3d8dfd7a	0.069331124
245	0x3dd99d28	0.10625678
246	0xbcc2990a	-0.023754615
247	0x3ce99727	0.028514458
248	0x3d238baa	0.039928116
249	0x3d899ef7	0.06719773
250	0x3d86fa9c	0.06590769
251	0x3db35721	0.08756853
252	0xbd685e0b	-0.05673031
253	0xbd6848e6	-0.056710146
254	0xbd40388a	-0.04692892
255	0xbd8945e9	-0.067027874

bias f4 [8]
0	0xbf114412	-0.5674449
1	0x3f0b78b3	0.5448105
2	0xbef60e05	-0.4805757
3	0xbefff924	-0.49994767
4	0xbece5a0e	-0.4030308
5	0xbedcb249	-0.4310477
6	0x3f2604b5	0.6485093
7	0x3f1fcbaa	0.6242014

weight f4 [8, 3, 6, 6]
0	0x3dad210c	0.08453569
1	0x3d8d83a5	0.06909875
2	0x3e41d1f2	0.18927744
3	0x3e2f56ad	0.17122908
4	0x3e3ef5a8	0.18648398
5	0x3e03773e	0.12838456
6	0x3e04fc06	0.12986764
7	0x3e4c6a9b	0.19962542
8	0x3e5fb153	0.21844988
9	0x3e83901f	0.25695893
10	0x3e48f4e5	0.1962467
11	0x3dd28512	0.102792874
12	0x3e2a1f84	0.16613585
13	0x3e87016f	0.2636828
14	0x3e833278	0.25624442
15	0x3e85ca65	0.26130977
16	0x3e2fdf13	0.1717494
17	0x3d98159b	0.07425996
18	0x3e55e460	0.208879
19	0x3e73bbd9	0.23802127
20	0x3ea77ecb	0.32713923
21	0x3e805355	0.25063577
22	0x3e577b6b	0.21043174
23	0x3d663559	0.05620322
24	0x3e40e4d3	0.1883729
25	0x3e8261fe	0.25465387
26	0x3e96c389	0.29446056
27	0x3e58b8a3	0.21164183
28	0x3e0e87c8	0.13918984
29	0x3d23e7f6	0.040016137
30	0x3e15e4b8	0.1463803
31	0x3e80a639	0.25126818
32	0x3e405ef7	0.18786226
33	0x3e1ede24	0.15514427
34	0x3df1901a	0.11795063
35	0xbaac648b	-0.0013152523
36	0xbd645b77	-0.05575129
37	0xbc731216	-0.014835855
38	0xbca17de4	-0.01971335
39	0x3befe976	0.007321532
40	0x3d9e10ec	0.07718071
41	0x3d2d6f17	0.04234227
42	0x3d7bce44	0.061476007
43	0x3cd895e4	0.02643866
44	0x3d2a9c6d	0.041653086
45	0x3dcaf020	0.099090815
46	0x3d8819c4	0.066455394
47	0xbc127255	-0.008938392
48	0x3cef3a4a	0.0292026
49	0x3d8a0500	0.06739235
50	0x3dd05de8	0.10174161
51	0x3de38800	0.11109924
52	0x3da57985	0.08079819
53	0x3be4655c	0.006970091
54	0x3d8e80f1	0.06958187
55	0x3e11fef0	0.14257407
56	0x3dfffd60	0.12499499
57	0x3dda5f12	0.106626645
58	0x3ddb8a8d	0.10719786
59	0x3d26d770	0.0407328
60	0x3dab0bac	0.083518356
61	0x3dd8d066	0.10586624
62	0x3e518f7d	0.20464893
63	0x3df2c451	0.11853851
64	0x3ce0f4aa	0.027460415
65	0xbd12e799	-0.0358654
66	0xbd2e6793	-0.042579245
67	0x3d5545ba	0.05206845
68	0x3e006cbf	0.12541483
69	0x3d15966a	0.0365204
70	0x3d172901	0.03690434
71	0xbc8df715	-0.017329732
72	0x3cba1c10	0.02271846
73	0xbca27510	-0.01983121
74	0xbd34fe00	-0.044187546
75	0x3d0aae24	0.03385748
76	0xbc029f4f	-0.007972552
77	0x3d8798b3	0.06620922
78	0xbd34611c	-0.044037923
79	0xbd6e3281	-0.058153633
80	0x3c8cb8fd	0.017178053
81	0x3d8d5e14	0.069027096
82	0x3c500144	0.012695614
83	0x3d930c4a	0.07180078
84	0x3dc5c0d8	0.09655923
85	0x3d521a49	0.0512946
86	0x3da7aa13	0.08186736
87	0x3d6e9f1e	0.058257215
88	0x3d51deae	0.051237755
89	0xbc7518b5	-0.014959504
90	0x3daf89d5	0.08571211
91	0x3d9b4531	0.075815566
92	0x3dad93b9	0.084754415
93	0x3d639115	0.055558283
94	0x3baea5ce	0.005329824
95	0xbc94d745	-0.018169055
96	0x3d697799	0.056998823
97	0x3c6bbb82	0.014387967
98	0x3dd7495a	0.105120376
99	0xbb49ed8b	-0.0030811753
100	0x3d040d78	0.032239407
101	0xbbe940b4	-0.007118309
102	0x3df5829a	0.11987801
103	0x3d8468c0	0.06465292
104	0x3cb6cb16	0.022313636
105	0x3c2d9b49	0.010596105
106	0xbd9d4081	-0.07678319
107	0xbdcde1dd	-0.100528456
108	0xbc084674	-0.008317579
109	0xbcbc5720	-0.022990763
110	0xbcb9194b	-0.022595068
111	0xbd553838	-0.052055568
112	0xbda158aa	-0.078782395
113	0xbd8567ff	-0.06513976
114	0xbd02d0d1	-0.031937424
115	0xbd9f6086	-0.07782082
116	0xbe011dfd	-0.12609096
117	0xbe2e198c	-0.17001933
118	0xbe3777c1	-0.17916776
119	0xbde4524d	-0.1114851
120	0x3c3da43a	0.011574799
121	0xbdeb872d	-0.11500392
122	0xbd8f8a5e	-0.07008813
123	0xbe1bbd90	-0.15209031
124	0xbdef7389	-0.116919585
125	0xbd829186	-0.06375413
126	0xbddd5b88	-0.10808474
127	0xbe1ff6fc	-0.15621561
128	0xbde0521c	-0.10953161
129	0xbe08ef28	-0.13372481
130	0xbd8cd58a	-0.06876667
131	0x3cc5992b	0.024120888
132	0xbd10e415	-0.035373766
133	0xbd8ae76e	-0.06782423
134	0xbe1d210c	-0.15344638
135	0xbda4077f	-0.08009242
136	0xbdb88589	-0.09009845
137	0x3b4014b1	0.0029309208
138	0xbc98aa8b	-0.018636009
139	0xbcc808e3	-0.0244183
140	0xbbe4c771	-0.006981783
141	0xbc9e1258	-0.019295856
142	0xbce574b3	-0.028009748
143	0x3d827856	0.063706085
144	0x3c2d919c	0.010593798
145	0xbd4c873c	-0.049933657
146	0xbe6e22ee	-0.23255512
147	0xbe0a8a0f	-0.13529228
148	0xbdc3a716	-0.095533535
149	0x3bddaffc	0.0067653637
150	0x3b88b46b	0.004171898
151	0xbe34f698	-0.17672193
152	0xbe8e55cb	-0.2779983
153	0xbeba973c	-0.36443508
154	0xbea0784f	-0.31341788
155	0xbdde2afd	-0.10848043
156	0xbd1f5496	-0.038899027
157	0xbe59dcb2	-0.21275595
158	0xbebfae2e	-0.37437576
159	0xbee8eb2f	-0.4549193
160	0xbe99dba2	-0.3005038
161	0xbe06d6b1	-0.13167836
162	0xbdf4d41d	-0.1195452
163	0xbe65aaa7	-0.2242838
164	0xbeb4a1a0	-0.3527956
165	0xbec59131	-0.38587335
166	0xbe43c08c	-0.1911642
167	0xbdd20674	-0.10255137
168	0xbdd58b88	-0.10427004
169	0xbe511cff	-0.20421217
170	0xbe57fcbc	-0.21092504
171	0xbe4ecbe0	-0.2019496
172	0xbda2c502	-0.079477325
173	0xbd9276a5	-0.07151536
174	0x3d18a0aa	0.037262596
175	0xbd5efeaa	-0.054442085
176	0xbdd14a01	-0.10219193
177	0xbd356c85	-0.044292945
178	0xbc723bcc	-0.0147847645
179	0x3d70cc8f	0.058788832
180	0x3de40b73	0.11134996
181	0xbdb160f0	-0.086610675
182	0xbdc10279	-0.094243
183	0xbd931016	-0.071808025
184	0xbdb7967b	-0.08964249
185	0xbd22c97d	-0.039742935
186	0x3d67ccdf	0.056591865
187	0xbdf9f85f	-0.12205576
188	0xbe3a67c2	-0.18203643
189	0xbdc3b431	-0.09555853
190	0xbe46a627	-0.1939932
191	0xbd093a29	-0.03350273
192	0xbcb08ec7	-0.021552457
193	0xbe2aa30f	-0.16663764
194	0xbe755144	-0.23956782
195	0xbe26fe44	-0.16307932
196	0xbdb57b00	-0.08861351
197	0xbdb0b827	-0.08628874
198	0xbd9bb40c	-0.076027006
199	0xbe084200	-0.13306427
200	0xbe658f23	-0.22417884
201	0xbdf38884	-0.11891273
202	0xbe0f10d8	-0.13971269
203	0x3c451f1b	0.012031342
204	0x3c8e7982	0.017391924
205	0xbe17e6c2	-0.14834121
206	0xbe1da3b1	-0.15394475
207	0xbe21b864	-0.15792996
208	0xbe074dbb	-0.13213246
209	0x3d37fe1d	0.044920076
210	0xbc82a80f	-0.015949277
211	0x3d4cd989	0.050012145
212	0x3d40092d	0.04688375
213	0x3ba3bdc6	0.004996988
214	0xbc08b63c	-0.008344229
215	0xbc35c250	-0.011093691
216	0x3c64d9f3	0.013967979
217	0x3d824db5	0.06362478
218	0x3ce1b466	0.027551841
219	0x3ccfe863	0.025379365
220	0x3c8b5ab7	0.01701103
221	0x3d608849	0.05481747
222	0x3df0e940	0.11763239
223	0x3e23b309	0.15986265
224	0x3dca22fd	0.09869955
225	0x3c9acd01	0.018896582
226	0x3dea24de	0.11432813
227	0x3d8466c0	0.064649105
228	0x3d9eff6f	0.07763564
229	0x3d2cef44	0.04222037
230	0x3e090909	0.13382353
231	0x3d233a8e	0.039850764
232	0x3e071d50	0.13194776
233	0x3dfb8521	0.12281252
234	0x3d58537e	0.052814
235	0x3d854523	0.065073274
236	0x3dcbfdee	0.099605426
237	0x3dfccf65	0.12344245
238	0x3e15ebc3	0.14640717
239	0x3de08415	0.10962693
240	0x3dbbce1c	0.091701716
241	0x3d8ae6ec	0.06782326
242	0x3d07629f	0.033053037
243	0x3d588a9a	0.052866556
244	0x3d879095	0.06619374
245	0x3d0a8d53	0.033826184
246	0xbd4c2120	-0.049836278
247	0xbd807a35	-0.06273309
248	0x3d55f029	0.052230988
249	0x3d77efa6	0.06053128
250	0x3d9ce7d9	0.07661409
251	0x3d821073	0.06350794
252	0xbd19ca64	-0.03754653
253	0xbd6a1b28	-0.057154804
254	0xbafb59d8	-0.0019176556
255	0xbdadd439	-0.08487744

bias f4 [3]
0	0xbe90a75b	-0.28252682
1	0xbea6af6b	-0.32555708
2	0xbeefd76d	-0.46844044
