best_model_cnnae_v2.pth (torch, 140273 bytes, 14 tensors)

weight f4 [12, 3, 8, 8]
0	0xbe347d2b	-0.17625873
1	0xbe319db1	-0.17345311
2	0xbe1195ef	-0.14217351
3	0xbe3df3c7	-0.18550025
4	0xbe1ed9be	-0.1551275
5	0xbe1d1832	-0.15341261
6	0xbd86c5ee	-0.06580721
7	0xbe26faf1	-0.16306664
8	0xbe1b2761	-0.1515174
9	0xbe2a6171	-0.16638733
10	0xbd872aee	-0.06599985
11	0xbd971a99	-0.0737812
12	0xbe393fe0	-0.18090773
13	0xbdb68092	-0.089112416
14	0xbdcb4a31	-0.0992626
15	0xbe261296	-0.16218027
16	0xbdd6a68e	-0.104809865
17	0xbda8f92d	-0.082506515
18	0xbdeaa80e	-0.11457835
19	0xbd839a67	-0.06425934
20	0xbd91833d	-0.0710511
21	0xbe23d3e6	-0.15998802
22	0xbd8ebaef	-0.069692485
23	0xbdde104a	-0.10842951
24	0xbe0471f4	-0.12934095
25	0xbe106873	-0.14102344
26	0xbd8dff16	-0.069334194
27	0xbd99042e	-0.074715
28	0xbd325aac	-0.043543503
29	0xbd3e9c85	-0.046535987
30	0xbe18a0c0	-0.14905071
31	0xbe24d20e	-0.16095755
32	0xbd6f6b9d	-0.058452237
33	0xbe1140d7	-0.1418489
34	0xbe2ece1f	-0.17070816
35	0xbe0b2210	-0.13587213
36	0xbe107fec	-0.14111298
37	0xbd8e276e	-0.06941114
38	0xbe1c34a5	-0.15254457
39	0xbd3efd53	-0.046628308
40	0xbe34eb72	-0.1766794
41	0xbda3d5d4	-0.07999769
42	0xbda1b21d	-0.078953005
43	0xbe35d3f4	-0.17756635
44	0xbe2681f7	-0.16260515
45	0xbde6a7e1	-0.11262489
46	0xbe212cc2	-0.1573973
47	0xbe2a5519	-0.16634025
48	0xbe3b1878	-0.18271053
49	0xbe016f2f	-0.1264007
50	0xbe367ec7	-0.17821799
51	0xbdea5b6f	-0.11443221
52	0xbd88ce64	-0.06679991
53	0xbd4aa61d	-0.049474824
54	0xbe191135	-0.1494797
55	0xbdf82a71	-0.1211747
56	0xbdd617a2	-0.10453726
57	0xbe1d7603	-0.15377049
58	0xbd86cbba	-0.065818265
59	0xbe1112d3	-0.14167337
60	0xbe2594a6	-0.16169986
61	0xbd5346aa	-0.051581062
62	0xbe049b8b	-0.1294996
63	0xbe41513e	-0.18878648
64	0xbe236daf	-0.1595981
65	0xbd91398a	-0.07091053
66	0xbde9967d	-0.114056565
67	0xbe2a196a	-0.16611257
68	0xbe1e0080	-0.15429878
69	0xbdb2ac69	-0.08724291
70	0xbe48b14e	-0.19598886
71	0xbd8f0e5c	-0.06985161
72	0xbe46eed9	-0.1942705
73	0xbd81f48f	-0.06345474
74	0xbe1a1969	-0.15048756
75	0xbd87f3e0	-0.06638312
76	0xbe0de231	-0.13855816
77	0xbdd29640	-0.10282564
78	0xbe43a4ef	-0.19105886
79	0xbe008f8b	-0.12554757
80	0xbe3e571a	-0.18587914
81	0xbe0cf4ea	-0.13765302
82	0xbdb1b64c	-0.086773485
83	0xbd6d7d74	-0.05798097
84	0xbdb3afee	-0.0877379
85	0xbe3ba5f7	-0.1832503
86	0xbdbfbe97	-0.09362524
87	0xbe254f9a	-0.16143647
88	0xbde76e67	-0.113003545
89	0xbdf9aef3	-0.12191572
90	0xbe3e2a8d	-0.1857092
91	0xbe1999f9	-0.15000142
92	0xbdf9f52a	-0.122049645
93	0xbdb13ea0	-0.08654523
94	0xbdf1b67b	-0.118023835
95	0xbe429b6f	-0.19004606
96	0xbdfc6d87	-0.12325578
97	0xbde0d498	-0.10978049
98	0xbdff8c70	-0.12477958
99	0xbde5ee33	-0.112270735
100	0xbd7a65e0	-0.06113231
101	0xbe1c8af5	-0.15287383
102	0xbe27b6b9	-0.16378297
103	0xbd971adb	-0.07378169
104	0xbe1cc81f	-0.15310715
105	0xbdaf3c45	-0.085564174
106	0xbe38e339	-0.18055429
107	0xbe1d5c18	-0.15367162
108	0xbe070c97	-0.13188396
109	0xbe191a97	-0.1495155
110	0xbe076ad9	-0.13224353
111	0xbde93b32	-0.11388244
112	0xbdd8a1bc	-0.105777234
113	0xbe0f8738	-0.14016426
114	0xbe18b0e9	-0.14911236
115	0xbd8bdfb5	-0.06829778
116	0xbdfa18b1	-0.12211741
117	0xbde18239	-0.11011166
118	0xbdec4448	-0.11536461
119	0xbe509a00	-0.20371246
120	0xbe5565f8	-0.20839679
121	0xbdba4d06	-0.09096722
122	0xbe1f5661	-0.15560295
123	0xbdf52fb4	-0.11971989
124	0xbe423121	-0.18964054
125	0xbe1609cc	-0.14652175
126	0xbe480924	-0.19534737
127	0xbd9912e3	-0.074743055
128	0x3d54239d	0.051791776
129	0x3d86daf2	0.06584729
130	0x3d7b38a9	0.061333332
131	0x3d2cc89d	0.042183507
132	0x3d8aa615	0.06769959
133	0x3873c35d	5.811766e-05
134	0x3d5935e2	0.053029902
135	0xbcf13b8d	-0.029447341
136	0x3c1f958e	0.009740246
137	0x3de853bd	0.11344097
138	0x3d936b90	0.0719825
139	0x3dbf3f36	0.093382284
140	0x3bc51b6e	0.0060152328
141	0x3d93c8ef	0.072160594
142	0x3d75e9fd	0.0600376
143	0x3d199f6e	0.03750556
144	0x3a65859c	0.0008755566
145	0x3d3cb9ff	0.046075817
146	0x3cecadfb	0.028891554
147	0x3dd576f6	0.104230806
148	0x3d4e3429	0.050342713
149	0x3c27c78e	0.010240449
150	0xbb1047a4	-0.0022015357
151	0xbcda334a	-0.026635785
152	0xbc08ae14	-0.008342285
153	0x3d6d58b7	0.057945933
154	0x3d3abe43	0.045591604
155	0xbc76467b	-0.015031452
156	0x3d8eb937	0.06968921
157	0x3d5a78d4	0.053337887
158	0xbc32eabb	-0.010920222
159	0x3d78e9f4	0.06076999
160	0xbbefa8db	-0.0073138303
161	0x3cf566a7	0.029956175
162	0x3ce0514f	0.027382521
163	0x3d782d6a	0.060590185
164	0x3da6087e	0.081070885
165	0x3cea562d	0.028605545
166	0xbc847891	-0.016170772
167	0x3d201564	0.0390829
168	0x3dda588d	0.10661421
169	0x3daecab1	0.08534754
170	0x3cbe24d1	0.023210915
171	0x3d9c6c62	0.0763786
172	0x3ddedfd1	0.10882533
173	0x3d7376db	0.05943952
174	0x3d1ba292	0.037996836
175	0x3d4c2645	0.049841184
176	0x3be95446	0.007120642
177	0x3b578af1	0.0032889212
178	0xbcc8cd31	-0.024511905
179	0x3d78f6ad	0.060782123
180	0x3d5cbaac	0.05388896
181	0xba6b6df2	-0.00089809217
182	0x3dc96854	0.09834352
183	0x3de2ec3e	0.11080216
184	0xbd21c564	-0.039494887
185	0x3da3688d	0.07978926
186	0x3d155a6c	0.036463186
187	0xbd008b90	-0.031383097
188	0x3d87bc2b	0.06627687
189	0x3d8c128e	0.068394765
190	0x3d7241a3	0.059144627
191	0x3da3b3be	0.079932675
192	0xbe0ed34e	-0.13947794
193	0xbdf85b49	-0.12126786
194	0xbd9cd294	-0.07657352
195	0xbe1a78ee	-0.15085194
196	0xbdc49282	-0.09598257
197	0xbe0ed709	-0.13949217
198	0xbe18b251	-0.14911772
199	0xbd8f34a1	-0.0699246
200	0xbe0ebe41	-0.13939764
201	0xbdfd3c8c	-0.12365064
202	0xbe2ae604	-0.16689306
203	0xbdb7f15e	-0.08981584
204	0xbe2e7138	-0.17035377
205	0xbd9a2737	-0.07527011
206	0xbe2a740c	-0.16645831
207	0xbe06389c	-0.13107532
208	0xbe1bfb29	-0.15232529
209	0xbd4904b5	-0.049076755
210	0xbe244fd3	-0.16046076
211	0xbe023534	-0.12715608
212	0xbdb4ccdb	-0.088281356
213	0xbe2bbac1	-0.1677046
214	0xbd5278f5	-0.051384885
215	0xbddf717f	-0.109103195
216	0xbdf11a68	-0.11772615
217	0xbd9c89bf	-0.076434605
218	0xbe3229bd	-0.17398734
219	0xbe20e5bc	-0.15712637
220	0xbd5cbec1	-0.053892855
221	0xbdae2952	-0.08503975
222	0xbe1a4b76	-0.15067849
223	0xbdcb0f06	-0.09914975
224	0xbe1d739a	-0.1537613
225	0xbe1bad65	-0.15202864
226	0xbdf9c188	-0.12195116
227	0xbdc182cf	-0.09448778
228	0xbd8be3e0	-0.06830573
229	0xbe0cadb0	-0.13738132
230	0xbe01f113	-0.12689619
231	0xbd3748fd	-0.04474734
232	0xbd861815	-0.06547562
233	0xbe1c2ba5	-0.15251024
234	0xbe29a1d7	-0.16565643
235	0xbe321f49	-0.17394747
236	0xbd8d100c	-0.06887826
237	0xbe161b6d	-0.146589
238	0xbe0c100a	-0.13677993
239	0xbd32f75d	-0.043692935
240	0xbd87001f	-0.0659182
241	0xbda6c3cb	-0.08142813
242	0xbdcc6493	-0.099801205
243	0xbdc47a37	-0.09593623
244	0xbe160985	-0.14652069
245	0xbe33e33d	-0.17567153
246	0xbe3d59b3	-0.18491249
247	0xbe0b38b8	-0.13595855
248	0xbdcaaf2a	-0.09896691
249	0xbd644956	-0.055734
250	0xbda1393f	-0.07872247
251	0xbe0bcf5c	-0.1365332
252	0xbdb8c3d6	-0.09021728
253	0xbe371925	-0.17880686
254	0xbd618180	-0.05505514
255	0xbe03a456	-0.12855658

bias f4 [12]
0	0xbea23ba7	-0.31686136
1	0xbe3185ea	-0.1733624
2	0xbe984a6a	-0.29744273
3	0x3eed8d93	0.46397075
4	0x3ed20622	0.41020304
5	0x3ecebd23	0.40378675
6	0xbdd434d8	-0.10361642
7	0x3ef3f27c	0.47645938
8	0xbe42ad0b	-0.19011323
9	0xbe695af4	-0.22788602
10	0xbe4b2c8f	-0.19841217
11	0xbe4bfb63	-0.19920115

weight f4 [12, 12, 8, 8]
0	0x3ddc8cae	0.1076902
1	0x3dc2dfe5	0.09515361
2	0x3ddc5b01	0.10759545
3	0x3dc480a8	0.09594852
4	0x3dbf5810	0.093429685
5	0x3db3fc75	0.08788387
6	0x3dd58ac2	0.104268566
7	0x3e06e31e	0.13172576
8	0x3d976920	0.07393098
9	0x3df169c0	0.11787748
10	0x3d8ee353	0.069769524
11	0x3ddfdb9f	0.10930561
12	0x3d96c6d5	0.07362143
13	0x3d975741	0.07389689
14	0x3dde42f1	0.10852612
15	0x3db6dd69	0.089289494
16	0x3e113f21	0.14184238
17	0x3d8f5870	0.0699929
18	0x3db7811d	0.08960173
19	0x3d6930cd	0.056931306
20	0x3dc2dd53	0.095148705
21	0x3dde4023	0.10852077
22	0x3de4d712	0.11173834
23	0x3dc6901f	0.09695458
24	0x3dbb0f57	0.09133785
25	0x3df68ca3	0.12038543
26	0x3df3cf92	0.11904825
27	0x3dea3b86	0.114371344
28	0x3d99caac	0.0750936
29	0x3d9647bf	0.07337903
30	0x3df258aa	0.118333176
31	0x3e063d37	0.13109289
32	0x3dbbba43	0.09166386
33	0x3db4f3e9	0.08835585
34	0x3e04153a	0.12898722
35	0x3de7f886	0.11326699
36	0x3dcd4716	0.10023324
37	0x3e0897fb	0.13339226
38	0x3dcfc8ff	0.10145759
39	0x3db5fdfe	0.08886336
40	0x3e14b641	0.1452265
41	0x3dae50d6	0.08511512
42	0x3de2a549	0.11066682
43	0x3db3a33e	0.0877137
44	0x3dc79372	0.0974492
45	0x3dbf3fdc	0.09338352
46	0x3da47e94	0.08031955
47	0x3e0b4548	0.13600647
48	0x3df39669	0.11893923
49	0x3e0a7d18	0.13524282
50	0x3deac4da	0.11463328
51	0x3e0f09f4	0.1396864
52	0x3e0e9c8f	0.1392691
53	0x3e0d3783	0.13790707
54	0x3e0231ce	0.12714311
55	0x3de4f905	0.11180309
56	0x3e247eb6	0.16063961
57	0x3dc9752e	0.098368034
58	0x3e029364	0.12751538
59	0x3e0d8373	0.13819675
60	0x3e046760	0.1293006
61	0x3e1fc02e	0.15600654
62	0x3dc694fc	0.09696385
63	0x3dd87e89	0.1057101
64	0x3dfccc98	0.12343711
65	0x3df3ce2a	0.11904557
66	0x3d927cb7	0.07152694
67	0x3dd80c20	0.10549188
68	0x3dce63cf	0.10077631
69	0x3d8fe06a	0.070252255
70	0x3e0127fb	0.12612908
71	0x3df9b69e	0.121930346
72	0x3db4c39c	0.08826372
73	0x3da9d149	0.08291871
74	0x3df25fb4	0.1183466
75	0x3df29e3d	0.11846588
76	0x3ded5799	0.115889736
77	0x3d85cb31	0.06532896
78	0x3dd437aa	0.103621796
79	0x3df0261a	0.11726017
80	0x3d9aa87d	0.07551668
81	0x3d873360	0.06601596
82	0x3dd00fb8	0.10159248
83	0x3d59ffab	0.05322234
84	0x3da43f96	0.080199406
85	0x3dce259f	0.100657694
86	0x3d74521a	0.05964861
87	0x3dfc0fc9	0.12307698
88	0x3dcb7677	0.09934705
89	0x3dda2ae8	0.10652715
90	0x3d731d80	0.059354305
91	0x3dbe833b	0.09302374
92	0x3da172f5	0.078832544
93	0x3db23868	0.08702165
94	0x3db271ca	0.0871311
95	0x3da20090	0.079102635
96	0x3dc4c034	0.09606972
97	0x3d87860c	0.06617364
98	0x3d7447f2	0.059638925
99	0x3d8f59fe	0.069995865
100	0x3da181c6	0.078860804
101	0x3de31008	0.11087042
102	0x3e03da0a	0.12876144
103	0x3daa6bd6	0.08321349
104	0x3db80b5c	0.08986542
105	0x3d8cc3fa	0.06873317
106	0x3d89a1ae	0.06720291
107	0x3d870210	0.0659219
108	0x3dbff221	0.09372354
109	0x3deeebce	0.1166607
110	0x3e059299	0.13044204
111	0x3dc6aacb	0.09700545
112	0x3e079407	0.13240062
113	0x3dbf08e7	0.0932787
114	0x3e0be5c9	0.13661875
115	0x3e08a7cd	0.13345261
116	0x3e04c29e	0.12964866
117	0x3dc2bef5	0.095090784
118	0x3db80612	0.08985533
119	0x3dd24953	0.10267892
120	0x3e164000	0.14672852
121	0x3dba720a	0.091037825
122	0x3ddaf89f	0.10691952
123	0x3e067e20	0.1313405
124	0x3dac9dcf	0.08428537
125	0x3dff9c82	0.12481023
126	0x3deea933	0.11653366
127	0x3e1bd7a3	0.15218978
128	0x3d9479f2	0.07249822
129	0x3e0a086d	0.13479777
130	0x3deb9114	0.11502281
131	0x3e0515f3	0.12996654
132	0x3da53661	0.080670126
133	0x3e09dc2d	0.13462897
134	0x3dc6d6eb	0.09708961
135	0x3dc135c2	0.094340816
136	0x3da3486e	0.07972799
137	0x3e02a2ff	0.1275749
138	0x3db45be0	0.08806586
139	0x3e06fbc1	0.13181974
140	0x3dfecb8a	0.12441166
141	0x3df9721d	0.121799685
142	0x3deacf9f	0.11465382
143	0x3dd35547	0.10319
144	0x3e119549	0.14217104
145	0x3dd1bc17	0.102409534
146	0x3df72595	0.12067715
147	0x3dc0197d	0.093798615
148	0x3de853b9	0.11344094
149	0x3dd13257	0.1021468
150	0x3dc1714e	0.09445439
151	0x3e009901	0.12558366
152	0x3e249ac8	0.1607467
153	0x3e129a9e	0.14316794
154	0x3d814990	0.06312859
155	0x3dff54dd	0.12467358
156	0x3d89cab0	0.06728113
157	0x3dfe1169	0.124056645
158	0x3e0d7d38	0.13817298
159	0x3e077c64	0.13231045
160	0x3e1dbc40	0.15403843
161	0x3da44dd6	0.080226585
162	0x3e0084be	0.12550637
163	0x3dd287e9	0.10279829
164	0x3de6dd17	0.11272638
165	0x3e05225a	0.13001385
166	0x3dc1ad40	0.09456873
167	0x3e1b7990	0.15183091
168	0x3dea476e	0.114394054
169	0x3e0ea7ac	0.13931149
170	0x3e052f33	0.13006286
171	0x3dd12dff	0.10213851
172	0x3df94447	0.12171226
173	0x3dc97391	0.09836496
174	0x3df588e3	0.11989
175	0x3e1d8dea	0.15386167
176	0x3dc00f6e	0.09377943
177	0x3de1b02a	0.11019929
178	0x3deb1dea	0.11480315
179	0x3db40fd2	0.0879208
180	0x3d978a73	0.07399454
181	0x3dda0b09	0.10646636
182	0x3e05462c	0.1301505
183	0x3e11aa54	0.14225131
184	0x3dc5d189	0.09659106
185	0x3e1ef3e8	0.1552273
186	0x3dd7c755	0.105360664
187	0x3e21ce71	0.15801407
188	0x3df11340	0.1177125
189	0x3dfbb2e3	0.12289979
190	0x3e1e0993	0.1543334
191	0x3e15459f	0.1457734
192	0x3da6e281	0.08148671
193	0x3d8876d8	0.06663293
194	0x3d069199	0.032853696
195	0x3d6b741e	0.057483785
196	0x3b7f50b5	0.0038958017
197	0x3b1d7e94	0.0024031745
198	0xbc69b937	-0.01426535
199	0xbd17217b	-0.036897164
200	0x3d11e334	0.03561707
201	0x3d22a45e	0.039707534
202	0x3dba05e4	0.09083155
203	0x3d0107ad	0.03150146
204	0x3d943321	0.072363146
205	0x3c2333d6	0.009961089
206	0xbbbbabbc	-0.0057272594
207	0xbcb7de72	-0.022444937
208	0xbb315ce5	-0.0027063426
209	0x3d5eb149	0.05436829
210	0x3dad7536	0.08469622
211	0x3d7aceb1	0.061232273
212	0x3d1859c2	0.037194975
213	0x3d098118	0.03357038
214	0x3c95eede	0.018302377
215	0x3b7cc5a3	0.003856995
216	0x3d3b48b4	0.045723632
217	0x3d0dc4e5	0.0346116
218	0x3ca34e3b	0.019934764
219	0x3d1ed457	0.03877672
220	0x3d972488	0.07380015
221	0x3d8b86bf	0.0681281
222	0x3d22f217	0.039781656
223	0xbcaaab2f	-0.02083358
224	0xbce9d1ec	-0.028542481
225	0x3c13e984	0.009027842
226	0x3d4c18eb	0.04982845
227	0x3d005e61	0.031340007
228	0x3d892bf6	0.06697838
229	0x3c046412	0.008080499
230	0x3c6684d7	0.014069757
231	0xbc97b258	-0.018517658
232	0xbc67ab10	-0.014139906
233	0x3c788850	0.015169218
234	0x3d4b54e5	0.04964151
235	0x3d800724	0.06251362
236	0x3c5a2318	0.013314031
237	0x3d5e6e43	0.054304373
238	0xbc042585	-0.008065586
239	0xbc90b2f6	-0.01766346
240	0xbcb76654	-0.022387661
241	0x3cbcab6e	0.023030963
242	0xbb69478c	-0.0035595624
243	0x3d394a3e	0.04523682
244	0x3b7bab47	0.003840165
245	0x3d330524	0.043706074
246	0x3c0ceb0a	0.00860096
247	0xbd1d04ac	-0.038334534
248	0xbd31710c	-0.0433207
249	0xbd32dde0	-0.043668628
250	0xbd27c0b0	-0.040955245
251	0xbc32690e	-0.010889305
252	0x3cdc43dc	0.026887827
253	0xbb2e4f45	-0.0026597541
254	0xbd2a4c3b	-0.041576605
255	0xbc4a0cfa	-0.012332195

bias f4 [12]
0	0xbe35b714	-0.1774562
1	0x3d9f797a	0.07786842
2	0x3e9d102a	0.30676395
3	0x3ea68e41	0.32530406
4	0xbdd36765	-0.10322455
5	0xbe3b992f	-0.18320154
6	0xbd6b4333	-0.057437133
7	0x3ea2f08f	0.31824157
8	0x3eae1b0d	0.34005013
9	0xbdec62bf	-0.11542272
10	0x3e9836b6	0.2972924
11	0xbdd49739	-0.10380406

weight f4 [12, 12, 2, 2]
0	0x3e4adab0	0.19809985
1	0x3e3d64f1	0.18495537
2	0xbdaa7ca1	-0.08324552
3	0xbd7cd974	-0.061730817
4	0x3ced0af7	0.028935893
5	0xbde707c0	-0.11280775
6	0xbe59e085	-0.21277054
7	0xbe3a03bf	-0.18165492
8	0x3ceda8e6	0.029011201
9	0x3e57b047	0.21063338
10	0x3dff83f9	0.12476344
11	0x3e035632	0.1282585
12	0xbe3eef09	-0.18645872
13	0xbd9218b7	-0.0713362
14	0xbe08754b	-0.13325994
15	0xbd864461	-0.06556011
16	0x3e876384	0.26443112
17	0x3d2a32ed	0.041552473
18	0x3dcfedf8	0.10152811
19	0x3dfeb691	0.124371655
20	0x3e7e3050	0.24823117
21	0x3da59daa	0.08086713
22	0x3d51ca47	0.051218297
23	0x3e195b2e	0.14976189
24	0x3d88cf95	0.06680218
25	0xbdcb7282	-0.0993395
26	0xbdaabeb1	-0.08337153
27	0x3c268814	0.0101642795
28	0xbdca22a0	-0.098698854
29	0xbd09f87d	-0.033684243
30	0xbcc4ee7f	-0.024039505
31	0x3e684175	0.2268122
32	0xbe5148bb	-0.204379
33	0xbe550ac9	-0.20804895
34	0x3d7b928d	0.06141906
35	0x3ca10345	0.01965488
36	0x3e5e9478	0.21736324
37	0x3d2f450e	0.042790465
38	0x3e24b08a	0.1608297
39	0x3e5e230d	0.21693058
40	0x3d19ffa4	0.037597314
41	0x3d95e412	0.073188916
42	0x3dbc2b3a	0.09187932
43	0x3e62c255	0.22144444
44	0xbce8d89b	-0.028423598
45	0x3b8abd0e	0.004233963
46	0x3bea2ad8	0.0071462207
47	0xbdb98df8	-0.090602815
48	0x3dedff2c	0.11620936
49	0x3e22e61a	0.1590809
50	0xbe08b77c	-0.13351244
51	0x3e1c4832	0.15261915
52	0xbc15feb9	-0.009154969
53	0x3e35343e	0.1769571
54	0xbe1c3531	-0.15254666
55	0xbd1853e8	-0.037189394
56	0xbdd5a408	-0.10431677
57	0x3d372b18	0.04471883
58	0x3d66265b	0.056188922
59	0xbd8ada44	-0.06779912
60	0xbde2ba6c	-0.110707134
61	0xbe4b594a	-0.1985828
62	0x3c386755	0.011255105
63	0xbda50ea7	-0.08059435
64	0xbdb1ce5a	-0.086819366
65	0x3cd5a614	0.026080169
66	0xbde95dd4	-0.113948494
67	0xbc80ef6b	-0.015739163
68	0x3c65f4de	0.014035432
69	0x3e184cd1	0.14873053
70	0x3e054750	0.13015485
71	0x3e3d096d	0.18460627
72	0x3df7a84a	0.120926455
73	0x3e575c11	0.21031214
74	0xbd9bba27	-0.07603865
75	0x3d876908	0.0661183
76	0x3df7ea3d	0.12105224
77	0xbe02e742	-0.1278353
78	0x3dc21b92	0.09477915
79	0x3ded6796	0.11592023
80	0x3d8cac24	0.06868771
81	0xbe1c599e	-0.15268561
82	0x3def4071	0.11682213
83	0xbdabe23d	-0.08392761
84	0x3d3a9549	0.045552526
85	0x3e4e5abd	0.20151801
86	0xbde8f0aa	-0.11374028
87	0x3e4ab688	0.19796193
88	0xbca6659f	-0.020312129
89	0xbe217896	-0.15768656
90	0x3dfc21d8	0.12311143
91	0xbc56c3d7	-0.013108215
92	0x3e38f7b9	0.18063249
93	0x3db85aaa	0.09001668
94	0x3dca9693	0.09892001
95	0x3c9b5f95	0.018966476
96	0x3cf9623d	0.030442351
97	0x3e843d85	0.25828186
98	0xbd42307c	-0.04740952
99	0x3d7f9308	0.06239608
100	0x3ce44008	0.027862564
101	0x3e8159ce	0.25263828
102	0xbce50955	-0.027958551
103	0x3dc5f1da	0.0966527
104	0xbdf4d51b	-0.11954709
105	0xbe5307a1	-0.20608379
106	0x3e7a24cd	0.24428101
107	0xbdc5a0af	-0.096497886
108	0x3e1aa0ff	0.15100478
109	0xbe02df52	-0.12780502
110	0xbc7772f6	-0.015103092
111	0x3df66c2f	0.12032353
112	0x3cd56ec3	0.026053792
113	0x3e5db858	0.21652353
114	0xbe31b5a3	-0.17354445
115	0xbca777a2	-0.020442788
116	0x3e31c169	0.17358936
117	0x3dcadba5	0.09905175
118	0xbd1da9bc	-0.03849195
119	0x3da3e857	0.080033
120	0x3e3758ec	0.17905015
121	0x3d82a35f	0.06378817
122	0xbe7452a9	-0.23859657
123	0xbdb26aee	-0.087118015
124	0x3da929d4	0.08259931
125	0xbe0f3a96	-0.13987193
126	0x3e61ee5b	0.22063582
127	0x3d615f95	0.055022795
128	0xbda5763a	-0.080791906
129	0xbe6b2b2b	-0.22965686
130	0x3d4fd1a3	0.050737035
131	0x3cdda0e1	0.027054252
132	0x3e240519	0.1601757
133	0x3e641df4	0.22277051
134	0xbd7061f7	-0.058687177
135	0x3dc74eb7	0.097318105
136	0xbe109ae4	-0.14121586
137	0xbe5dab3b	-0.2164735
138	0x3dbda76f	0.09260451
139	0xbd82f247	-0.06393867
140	0x3c3f8775	0.01169001
141	0x3e388317	0.18018757
142	0xbd4a1b8e	-0.049342684
143	0x3cc0b0b8	0.023521766
144	0x3dc0f205	0.094211616
145	0xbd99386e	-0.07481466
146	0x3e6e9139	0.23297586
147	0x3e6ee8d7	0.23331009
148	0xbe043d89	-0.12914099
149	0xbe4aee3f	-0.19817446
150	0x3dd65764	0.10465887
151	0xbd82684e	-0.06367551
152	0xbc2732ab	-0.010204951
153	0x3e24dd1f	0.16099976
154	0xbd9183a3	-0.07105186
155	0xbe039084	-0.12848097
156	0x3e35d518	0.1775707
157	0x3c9984d1	0.01874009
158	0xbe6bb094	-0.23016578
159	0xbe387ef5	-0.1801718
160	0x3db03391	0.086035855
161	0xbded5c23	-0.11589839
162	0x3e258dde	0.161674
163	0x3e5f5448	0.21809494
164	0xbdd4ef40	-0.10397196
165	0x3ddd2846	0.10798697
166	0x3c9780d6	0.018494051
167	0x3d95b51b	0.07309934
168	0xbc768a15	-0.01504757
169	0xbe6cc919	-0.23123588
170	0x3bec1588	0.007204715
171	0x3d7d740f	0.06187826
172	0x3c9b05bd	0.018923635
173	0x3d493de0	0.049131274
174	0xbd469152	-0.048478432
175	0xbe1c8a8d	-0.15287228
176	0x3e128162	0.14307168
177	0x3dc4d469	0.096108265
178	0xbd4f0569	-0.05054227
179	0xbe354c77	-0.1770495
180	0x3df92c22	0.12166621
181	0x3dafc373	0.08582201
182	0x3e06f327	0.13178693
183	0x3ad7f3de	0.0016475876
184	0x3d8a0433	0.06739082
185	0x3db31ade	0.08745359
186	0xbe22d56a	-0.15901724
187	0xbe020ca2	-0.12700132
188	0xbe4788ab	-0.19485728
189	0x3da093c2	0.078406826
190	0x3e35c439	0.17750634
191	0x3d96da8e	0.07365905
192	0xbd39c462	-0.0453533
193	0x3bbe9272	0.0058157975
194	0xbe3ae30c	-0.18250674
195	0xbc3ca761	-0.011514516
196	0xbdbebdad	-0.093135215
197	0xbe21f3ea	-0.15815702
198	0xbe3054c3	-0.17219834
199	0x3de01fb9	0.109435506
200	0xbd6d5b0d	-0.05794816
201	0x3d2661ed	0.040620733
202	0x3e1c5d75	0.15270026
203	0xbbccc3fa	-0.006248948
204	0xbcc3b545	-0.023890147
205	0xbde24d0d	-0.110498525
206	0x3e15e72b	0.14638965
207	0x3e4b3974	0.19846135
208	0xbc43e873	-0.011957276
209	0xbdb3a688	-0.08771998
210	0xbd853b19	-0.065054126
211	0x3dd9a944	0.10627988
212	0xbe07d8c2	-0.1326628
213	0x3daa0e6c	0.08303532
214	0xbd08c984	-0.033395305
215	0x3dc269e4	0.09492853
216	0xbe361ef5	-0.17785247
217	0xbde66879	-0.11250395
218	0xbcc0814f	-0.02349916
219	0xbdbf538f	-0.093421094
220	0x3e79ea97	0.24405895
221	0x3d474ebd	0.048659075
222	0x3da3acd1	0.079919465
223	0x3dc60bf4	0.09670249
224	0x3e865c54	0.26242316
225	0xbd1e2611	-0.03861052
226	0x3c41ebfa	0.011836046
227	0x3c89c405	0.016817102
228	0x3de6d6ef	0.11271464
229	0xbd4d1d84	-0.050076976
230	0xbd80c499	-0.06287498
231	0x3df34acf	0.11879503
232	0x3d85b542	0.06528713
233	0x3d9cd649	0.07658059
234	0x3e67cac6	0.22635946
235	0x3e03afee	0.1286008
236	0x3d85e9cc	0.06538734
237	0xbdff4da5	-0.124659814
238	0x3dd2aed7	0.10287254
239	0xbd18e8e2	-0.03733147
240	0x3c765e38	0.015037112
241	0xbd0605a1	-0.032720212
242	0x3e07527c	0.13215059
243	0x3e43dfc7	0.19128333
244	0xbd71edf6	-0.059064828
245	0xbe0ae0de	-0.13562343
246	0x3ddcb719	0.107771106
247	0x3d7acce3	0.06123055
248	0x3e2ae6fe	0.16689679
249	0x3cb9db4e	0.02268758
250	0xbdbee417	-0.093208484
251	0xbe52252c	-0.20521992
252	0x3e1d6d43	0.15373711
253	0x3ddd78b4	0.10814038
254	0xbc79ea70	-0.015253648
255	0xbddbe9b6	-0.10737936

bias f4 [12]
0	0x3d2d75f7	0.04234883
1	0x3e0805b7	0.1328343
2	0x3defb7ca	0.11704977
3	0x3cd93e52	0.026518974
4	0xbb12d34d	-0.0022403777
5	0xbc493727	-0.012281216
6	0x3cd58e29	0.026068764
7	0x3d76d5dd	0.06026255
8	0x3e2a65ca	0.16640392
9	0x3d1ee9cc	0.038797185
10	0x3c237012	0.00997545
11	0x3d977ced	0.073968746

weight f4 [12, 12, 8, 8]
0	0xbc74e9b2	-0.014948295
1	0xbca99b52	-0.020703945
2	0xbc914856	-0.017734688
3	0xbb62d110	-0.0034609474
4	0x3cb23212	0.021752391
5	0xbcdc774c	-0.026912354
6	0xbb72eb10	-0.0037066378
7	0xbb125320	-0.0022327378
8	0x3c5275e0	0.012845486
9	0xbd0b6cba	-0.034039237
10	0xbca875cd	-0.020563984
11	0x3c71e2e0	0.014763564
12	0x3bf3b338	0.007437136
13	0xbc582e7c	-0.0131946765
14	0xbce692de	-0.028146204
15	0xbcb06fe8	-0.021537736
16	0x3c9a4428	0.018831328
17	0xbcee0198	-0.029053494
18	0x3dc03888	0.093857825
19	0x3cadccac	0.02121576
20	0x3cb8d87e	0.022564169
21	0x3dd2228e	0.10260497
22	0xbd0eb36c	-0.03483908
23	0x3bf679c8	0.0075218417
24	0x3bb60aa8	0.0055554695
25	0xbc0ba658	-0.008523546
26	0xba8c2f56	-0.001069526
27	0xbd0df965	-0.03466167
28	0x3cc8351c	0.024439387
29	0x3ce3f108	0.027824894
30	0x3d12dc84	0.03585483
31	0xbce605db	-0.028078964
32	0xbbf304c8	-0.0074163415
33	0xbc5dc9cc	-0.013536882
34	0xbbd9e029	-0.0066490364
35	0x3bbf5e92	0.005840131
36	0xbcb4e92c	-0.022083841
37	0xbd7fefbb	-0.062484484
38	0x3cc5e2fa	0.024156082
39	0xbd090ee1	-0.033461455
40	0x3cbfe97c	0.023426764
41	0xbc18000e	-0.009277357
42	0xbcbfae44	-0.023398526
43	0xbc830644	-0.015994199
44	0xbd7d3f28	-0.06182781
45	0xbdc7c541	-0.0975442
46	0x3c27d27c	0.0102430545
47	0xbc112b4c	-0.00886042
48	0xbd017268	-0.031603247
49	0xbc8ce69b	-0.017199805
50	0x3cc9d878	0.024639353
51	0xbc9f94e1	-0.01948017
52	0xbbec3a4c	-0.007209098
53	0xbcc74f66	-0.024329852
54	0x3cf4c488	0.02987887
55	0xbb32f1d0	-0.0027304776
56	0x3c187778	0.009305827
57	0x3cf00134	0.029297449
58	0xbca86ea3	-0.020560568
59	0xbcb26c84	-0.02178026
60	0x3c949a96	0.018140119
61	0xbd1365fa	-0.035985924
62	0x3c57cf08	0.013171919
63	0x3c3bfeec	0.011474352
64	0x3d02b304	0.031909004
65	0x3c0f5e30	0.008750483
66	0xbc43e3de	-0.011956183
67	0x3cda40b4	0.026642181
68	0x3ce6b0c8	0.028160468
69	0x3c163e9c	0.009170201
70	0xbc18a434	-0.009316493
71	0x3d0b0c92	0.033947535
72	0xbc8cb367	-0.01717539
73	0xbd0a9942	-0.033837564
74	0x3c6eaa74	0.014567006
75	0xbc8f980b	-0.017528554
76	0x3ce3d914	0.027813472
77	0x3c5d8578	0.013520591
78	0x391ed800	0.0001514852
79	0xbb9f08d4	-0.0048533473
80	0xbbd90700	-0.006623149
81	0x3cf3c67c	0.02975773
82	0x3da0deb9	0.07854981
83	0x3db9754a	0.09055574
84	0x3c08238d	0.008309257
85	0x3d4f3d06	0.050595306
86	0x3cb1e61e	0.021716174
87	0xbbec2568	-0.0072066076
88	0xbc766d5e	-0.015040724
89	0xbc142ac6	-0.009043401
90	0x3d962d33	0.0733284
91	0x3d825adb	0.063649856
92	0x3d8f1e72	0.06988229
93	0x3c716aae	0.014734907
94	0xbca6accb	-0.020346066
95	0xbc7717aa	-0.015081326
96	0x3cd6fd92	0.026243959
97	0x3ca49070	0.020088404
98	0x3d53a3c2	0.051669843
99	0x3db6160e	0.08890925
100	0x3d8e7f66	0.06957893
101	0xbcb5360e	-0.022120502
102	0xbc8cd717	-0.017192407
103	0x3c8efac6	0.017453562
104	0xbcacd198	-0.021096036
105	0x3d09c710	0.033637106
106	0xbd03ec20	-0.03220761
107	0x3c917599	0.01775627
108	0xbd26663f	-0.040624853
109	0xbdb67332	-0.089086905
110	0xbd111cbf	-0.035427805
111	0x3cd6b854	0.026210941
112	0xba91e940	-0.0011132136
113	0x3cad1ff4	0.0211334
114	0x3beb8568	0.007187534
115	0xbc979a7c	-0.018506281
116	0xbcde9dd2	-0.027174864
117	0xbcef6332	-0.029222105
118	0x3ce356c0	0.027751327
119	0x3cc80e9a	0.024421025
120	0x3d027942	0.03185392
121	0x3cbcba50	0.02303806
122	0xbb0bf8d0	-0.002135802
123	0xbb85d260	-0.0040839165
124	0x3ac0c720	0.0014707781
125	0xbc19d19e	-0.009388356
126	0x3c41481c	0.011796977
127	0x3c9fe18c	0.019516729
128	0x3b902f40	0.004400164
129	0xbcb24f3a	-0.021766294
130	0x3afcde80	0.0019292384
131	0x3cc72574	0.024309851
132	0x3d0bfc86	0.034176372
133	0xbc341304	-0.010990862
134	0xbbeb403c	-0.007179288
135	0xbd0b05fc	-0.033941254
136	0x3b5b9a40	0.0033508688
137	0x3c97396c	0.018459998
138	0x3cde46a0	0.027133286
139	0xbc693200	-0.014233112
140	0x3c1ad580	0.009450316
141	0x3cbccfda	0.02304833
142	0x3c82cdd2	0.015967283
143	0x3c94463c	0.018099897
144	0x3c95b922	0.018276755
145	0xbcfa65f4	-0.030566193
146	0x3d033265	0.03203048
147	0x3dbf729a	0.093480304
148	0x3d38018c	0.04492335
149	0x3d18c95e	0.037301414
150	0xbccfbcc5	-0.025358567
151	0xbcb9b514	-0.022669353
152	0x3cfa3a1c	0.030545287
153	0xbd00d8fa	-0.031456925
154	0x3d2b8add	0.041880477
155	0x3cb374bc	0.02190625
156	0x3cac764e	0.021052506
157	0x3c89b0b8	0.016807899
158	0x3c1f490c	0.009722006
159	0x3c8273de	0.01592439
160	0xbc88ebe2	-0.01671404
161	0xbbceaa10	-0.006306894
162	0x3ce9712c	0.028496347
163	0x3d198542	0.0374806
164	0xbb2268c0	-0.0024781674
165	0xbd5d8bcd	-0.054088403
166	0x3d0643ec	0.03277962
167	0xbb62ca30	-0.0034605376
168	0xbc6aa696	-0.014321944
169	0xbd0ffbef	-0.035152372
170	0xbc0eaca4	-0.008708153
171	0x3bae2f4f	0.005315698
172	0xbd19de0b	-0.037565272
173	0xbd77d5f3	-0.060506772
174	0xbb598ba0	-0.0033194795
175	0x3d0cdf70	0.034392774
176	0xbcfbb7ab	-0.030727228
177	0x3c6a0410	0.014283195
178	0x3d07ebfc	0.033184037
179	0x3d110830	0.0354082
180	0xbc8cfa4a	-0.01720919
181	0xbcb2fcc1	-0.021849038
182	0xbd0cb537	-0.034352507
183	0xbc9993e9	-0.018747287
184	0xbd133232	-0.03593654
185	0x3cc0acc8	0.023519889
186	0x3c936b08	0.017995372
187	0x3d01ad1e	0.031659238
188	0x3cf4c840	0.029880643
189	0x3cbc84ac	0.023012482
190	0xbd069041	-0.032852415
191	0xbc221248	-0.009892054
192	0x3c07dce0	0.008292407
193	0xbc0889f0	-0.008333668
194	0x3c5cb744	0.013471428
195	0xbd0304ff	-0.031987187
196	0x3abd7660	0.0014454834
197	0x3c112884	0.008859757
198	0x3c402c48	0.0117293075
199	0xbc809636	-0.015696626
200	0xbcfce48c	-0.030870698
201	0xbbee2c98	-0.0072684996
202	0x3c96aac2	0.01839197
203	0xbc87af1b	-0.016562989
204	0x3c5733a4	0.013134871
205	0x3ce4b460	0.02791804
206	0x3c171c9c	0.00922313
207	0x3cf84ddc	0.030310564
208	0x3cebaf40	0.02877009
209	0xbc9a72c5	-0.018853555
210	0xbde87bce	-0.11351739
211	0xbd6c6569	-0.0577139
212	0x3c498d61	0.012301774
213	0xbcbc2baa	-0.02297004
214	0xbc1fa5e2	-0.009744139
215	0xbc1f66e6	-0.009729123
216	0x3c2cfa24	0.010557685
217	0x3c6bd5f4	0.014394272
218	0xbd878337	-0.06616824
219	0x3c17dd9a	0.0092691425
220	0x3d5d1e09	0.053983722
221	0x3d421ad6	0.047388874
222	0xbcae8504	-0.021303661
223	0xbb535920	-0.0032249168
224	0xbbabe678	-0.00524598
225	0x3c491738	0.012273602
226	0xbd16d261	-0.036821727
227	0x3db54022	0.08850123
228	0x3d672f94	0.05644186
229	0x3dc2df4d	0.095152475
230	0x3c74d334	0.014942933
231	0x3d02e284	0.031954303
232	0xbb99c738	-0.004692938
233	0xbba760bc	-0.005107967
234	0xbd1fb64a	-0.038992204
235	0x3d9fc964	0.07802084
236	0x3e0b1c3b	0.13584988
237	0x3e2c3818	0.16818273
238	0xbcecebc4	-0.028921016
239	0xbd11c136	-0.03558465
240	0x3d0adec0	0.033903837
241	0x3c9b13f0	0.018930405
242	0xbd0cac9d	-0.034344304
243	0x3c5abff8	0.013351433
244	0xbb847a90	-0.004042931
245	0xbcee0d3c	-0.029059045
246	0x3d128308	0.035769492
247	0x3d1377b0	0.036002815
248	0x3cd0e806	0.025501262
249	0x3cc57300	0.024102688
250	0x3c69f35c	0.014279213
251	0xbd025f81	-0.03182936
252	0x3b922030	0.0044594035
253	0x3bd24400	0.0064167976
254	0xb9c3ab80	-0.00037321076
255	0xbcba4dd2	-0.022742186

bias f4 [12]
0	0x3e028825	0.12747248
1	0x3d1ae8ff	0.03781986
2	0x3d838754	0.06422296
3	0xbe739b55	-0.23789723
4	0xbe8ce06f	-0.2751498
5	0xbe8824e0	-0.26590633
6	0x3e238fe2	0.15972856
7	0x3d52c802	0.051460274
8	0x3d13793b	0.036004286
9	0x3d39e505	0.045384426
10	0x3db721e1	0.08942009
11	0xbe83cb0a	-0.25740844

weight f4 [12, 12, 6, 6]
0	0xbd01f4fd	-0.03172778
1	0xbc344d1c	-0.011004712
2	0xbcc33208	-0.023827568
3	0xbdbb81c4	-0.0915561
4	0xbda3b725	-0.079939164
5	0xbccc12ba	-0.024911273
6	0xbdba8e8b	-0.09109219
7	0xbc73440c	-0.014847767
8	0xbcedac6e	-0.029012885
9	0xbdac33ef	-0.08408343
10	0xbd17a3e6	-0.03702154
11	0xbcc2439f	-0.023713885
12	0xbd00616b	-0.031342905
13	0xbe0c6b0b	-0.13712709
14	0x3c9cdfd6	0.019149702
15	0xbe88f641	-0.26750377
16	0xbdf2d6ef	-0.118574016
17	0xbd69a5d1	-0.0570429
18	0xbc9e7415	-0.019342462
19	0xbd684bbb	-0.056712847
20	0xbb8d6d2f	-0.004315994
21	0xbe126eeb	-0.14300124
22	0xbd57fac7	-0.052729394
23	0xbd575237	-0.05256864
24	0xbd545050	-0.051834404
25	0xbc8a57d3	-0.016887581
26	0xbdcd063b	-0.10010954
27	0xbd4c5a29	-0.04989067
28	0xbc6b9d51	-0.014380769
29	0xbda881cd	-0.082278825
30	0xbdb05b86	-0.08611207
31	0xbd2f0829	-0.04273239
32	0xbd131e6e	-0.035917692
33	0x3a49b792	0.00076948956
34	0xbd3b2582	-0.045690067
35	0xbdcb8582	-0.09937574
36	0x3cb8b7dc	0.022548608
37	0xbd4e4778	-0.050361127
38	0xbd15ca68	-0.036569983
39	0xbe0edcc8	-0.13951409
40	0xbd82e514	-0.063913494
41	0xbd3f665f	-0.046728488
42	0x3c50a4a6	0.012734568
43	0xbcea93e6	-0.028634977
44	0xbba8202e	-0.0051307892
45	0xbe0e699c	-0.13907474
46	0xbcdcb4a7	-0.02694161
47	0xbd80486b	-0.06263813
48	0xbd9c49b0	-0.07631242
49	0xbd877bab	-0.06615385
50	0xbd49087d	-0.04908036
51	0xbe584ba4	-0.21122605
52	0xbe155e21	-0.14586689
53	0xbd8de3b6	-0.06928198
54	0xbd286182	-0.041108616
55	0xbca3a502	-0.019976143
56	0x3cb9133a	0.022592176
57	0xbe1dec30	-0.1542213
58	0xbdba66e5	-0.09101657
59	0xbc39833f	-0.011322795
60	0xbd2c862a	-0.042120136
61	0xbcd35347	-0.025796546
62	0xbcaf3b1e	-0.021390494
63	0xbd87f053	-0.06637635
64	0xbc3f0cf0	-0.011660799
65	0xbd25daf9	-0.04049203
66	0xbd8d2110	-0.06891072
67	0xbd87ea89	-0.06636531
68	0x3d0bed85	0.034162063
69	0xbc9ef378	-0.019403204
70	0xbc8f280e	-0.017475154
71	0xbcea72e4	-0.028619237
72	0xbdc915bd	-0.098185994
73	0xbcafe39c	-0.021470837
74	0x3c8ae321	0.016954007
75	0x3e0950e3	0.13409762
76	0x3cbc2d6c	0.022970878
77	0x3d3d5b47	0.046229627
78	0xbd0cea2a	-0.034403004
79	0x3d2cf426	0.042225026
80	0xbc7e6fe9	-0.015529611
81	0x3e164ba1	0.14677288
82	0x3e0b7922	0.13620427
83	0x3cd9eecf	0.02660313
84	0x3d693025	0.05693068
85	0x3dc5f6e8	0.09666234
86	0x3db0927b	0.08621689
87	0x3e99b8ca	0.30023795
88	0x3dc5bce7	0.09655171
89	0x3d09dde5	0.03365888
90	0xbcad673d	-0.021167392
91	0x3d6a8644	0.057256952
92	0x3bf16100	0.0073662996
93	0x3dfd91bc	0.12381312
94	0x3c511f7f	0.012763857
95	0xbd8f88a5	-0.07008485
96	0xbd02c223	-0.031923424
97	0x3d8f2ac8	0.06990582
98	0x3c1e8e8c	0.0096775405
99	0x3c97e77e	0.018543001
100	0x3c5262cc	0.012840938
101	0x3cd5a259	0.02607839
102	0xbd222ee2	-0.039595492
103	0x3cb089c5	0.021550069
104	0xbd4eb4cd	-0.050465394
105	0xbaed1f07	-0.0018090912
106	0x3cb8bc57	0.022550745
107	0x3cc59783	0.024120098
108	0xbd706e39	-0.058698867
109	0xbcf6ca4c	-0.03012576
110	0xbb001c61	-0.0019548165
111	0xbde4d35c	-0.11173126
112	0xbd883c22	-0.066520944
113	0xbc8bd18e	-0.017067697
114	0xbd25da5e	-0.040491454
115	0xbcd9dbfd	-0.026594156
116	0x3cc084d7	0.023500843
117	0xbe2387d9	-0.1596979
118	0xbddebc59	-0.10875768
119	0xbd2e23c0	-0.042514563
120	0x3b70f26f	0.0036765595
121	0xbdc548c6	-0.09633021
122	0x3bca534b	0.00617448
123	0xbe8325ee	-0.25614876
124	0xbd71e79f	-0.05905878
125	0xbccbb4fa	-0.02486657
126	0xbc2224cf	-0.009896471
127	0xbd293f4f	-0.04132014
128	0x3cf8939f	0.030343829
129	0xbe469833	-0.19393997
130	0xbcec0ff4	-0.0288162
131	0xbd2d3474	-0.04228635
132	0xbcc50003	-0.024047857
133	0xbd551c25	-0.052028794
134	0xbd8ffa79	-0.07030196
135	0xbd46b954	-0.048516586
136	0x3cef54ae	0.029215183
137	0xbd71c649	-0.05902699
138	0x3d23da10	0.040002882
139	0xbc5f3376	-0.013623109
140	0x3ca24e42	0.019812707
141	0xbd30899d	-0.04309999
142	0xbca6edfa	-0.020377148
143	0xbdb1b57f	-0.08677196
144	0x3c2f137f	0.010685801
145	0xba093365	-0.00052337936
146	0x3c5bc36d	0.013413292
147	0x3ddd8a23	0.10817363
148	0x3ce30909	0.02771427
149	0x3d51afb2	0.051192947
150	0xbabc3fef	-0.0014362315
151	0xbc1d5c15	-0.009604474
152	0xbd07d151	-0.033158604
153	0x3e29bee3	0.16576724
154	0x3c41586f	0.011800869
155	0xbd209f07	-0.03921416
156	0x3dd4fd77	0.10399907
157	0x3e0395e4	0.12850147
158	0x3dd0500c	0.10171518
159	0x3e874aaa	0.26424152
160	0x3c73a551	0.0148709575
161	0x3ce62add	0.02809661
162	0xbcab969d	-0.020945841
163	0xbd30610b	-0.043061297
164	0x3c830061	0.015991392
165	0x3e3b8628	0.18312895
166	0x3c26a4fd	0.010171172
167	0x3d1ae302	0.037814148
168	0x3d056339	0.03256533
169	0x3c1c324f	0.009533479
170	0x3938afdb	0.00017613119
171	0x3d4bd4ca	0.04976348
172	0x3c150fef	0.009098037
173	0xbcf7c087	-0.030243171
174	0x3d5a6c21	0.053325776
175	0xbd21253b	-0.039342146
176	0xbd19daf6	-0.037562333
177	0xbc2f937e	-0.010716317
178	0x3bb5a213	0.0055430024
179	0x3d36e5b8	0.04465267
180	0x3ba77b86	0.0051111607
181	0x3bd27ef3	0.006423825
182	0xbb711bdd	-0.003679029
183	0x3de80150	0.11328375
184	0x3d44f43c	0.048084483
185	0x3d2139e4	0.03936185
186	0xbd6ecae0	-0.058298945
187	0xbd194591	-0.03741986
188	0xbc09d6a2	-0.008412989
189	0x3dd5958b	0.10428914
190	0x3d7764ed	0.060398985
191	0x3d91fd3c	0.07128379
192	0x3cd04d36	0.025427442
193	0x3d148d65	0.036267657
194	0x3d74adc0	0.059736013
195	0x3e88cf87	0.2672083
196	0x3bd50222	0.0065004984
197	0x3d1b91fe	0.037981026
198	0xbcda457d	-0.026644463
199	0x3cad0675	0.021121243
200	0x3d13f47a	0.036121823
201	0x3e500c8e	0.20317289
202	0x3d7585bf	0.059942003
203	0xbc9ea4b0	-0.019365638
204	0xbd60b408	-0.05485919
205	0x3c6c6aa4	0.014429722
206	0x3cc88e17	0.024481816
207	0x3c78e3ff	0.015191077
208	0x3d0b8d8c	0.034070536
209	0x3cf5bdc5	0.029997716
210	0xbd178cde	-0.036999576
211	0xbcea592d	-0.028606975
212	0xbc530d4a	-0.012881586
213	0x3d24b2ed	0.0402097
214	0x3c834ace	0.01602688
215	0xbd11769b	-0.0355135
216	0x3bca02c4	0.0061648805
217	0xbce08b92	-0.027410302
218	0xbda38add	-0.079854704
219	0xbda8a8dd	-0.08235333
220	0xbdabedcc	-0.083949655
221	0x3d78b98f	0.060723837
222	0x3c4d9b0d	0.012549174
223	0xbd2ae09e	-0.041718118
224	0xbce99209	-0.028512018
225	0xbdac4930	-0.08412397
226	0xbda4b728	-0.08042747
227	0xbb4939eb	-0.0030704688
228	0xbd9ea4a0	-0.077462435
229	0xbbd2bb13	-0.0064309924
230	0xbd6363d7	-0.055515137
231	0xbe3bf15a	-0.18353787
232	0xbcb6b524	-0.022303171
233	0xbd6f3c20	-0.05840695
234	0xbcbdc641	-0.023165824
235	0xbce2ba4f	-0.02767673
236	0xbcb50b2f	-0.02210006
237	0xbe4eafcb	-0.20184247
238	0xbbfd69c4	-0.0077335555
239	0xbd708494	-0.058720186
240	0xbda5716f	-0.08078276
241	0xbcfa3fd0	-0.030548006
242	0xbd64f55b	-0.05589805
243	0xbd435d7b	-0.04769657
244	0xbd0cf1ff	-0.034410473
245	0xbdbf7d3a	-0.09350057
246	0x3ba6a386	0.0050854115
247	0xbdadd09d	-0.084870555
248	0xbd004367	-0.03131428
249	0xbd9d45cc	-0.07679328
250	0xbd912382	-0.07086851
251	0xbd8478a6	-0.06468324
252	0xbcda07b3	-0.026615
253	0x3d87d5b9	0.06632561
254	0xbc812154	-0.015762962
255	0x3dc7e5f2	0.097606555

bias f4 [12]
0	0xbeb798e7	-0.35858843
1	0xbe869eb7	-0.26292965
2	0xbd8d96d5	-0.069135346
3	0xbebf630f	-0.37380263
4	0xbd7750a2	-0.06037963
5	0x3d786a48	0.060648233
6	0xbeb0c102	-0.34522253
7	0x3da0efcf	0.0785824
8	0x3e179e47	0.14806472
9	0x3e1313f8	0.14363086
10	0xbec0c4a9	-0.3765004
11	0xbd48ebbc	-0.04905294

weight f4 [12, 6, 8, 8]
0	0xbdd65f0d	-0.10467348
1	0xbddf7ce5	-0.109124936
2	0xbd2ece6b	-0.042677324
3	0xbd067484	-0.03282596
4	0xbd2ac40f	-0.041690882
5	0xbd0053cd	-0.03132992
6	0xbce47dc8	-0.027892008
7	0xbda4c94f	-0.08046209
8	0xbde57b43	-0.11205151
9	0xbe21acb0	-0.15788531
10	0xbd7f9747	-0.06240013
11	0xbe05bf4a	-0.13061252
12	0xbd345286	-0.044024013
13	0xbdb3dfc2	-0.08782913
14	0xbd7f530f	-0.06233507
15	0xbdd0b5b7	-0.10190909
16	0xbdb3f828	-0.087875664
17	0xbdabfe29	-0.083980866
18	0xbd56a6f8	-0.052405328
19	0xbd1d9fb6	-0.03848239
20	0xbd9e3ece	-0.07726823
21	0xbd89fb8d	-0.06737433
22	0xbcbd7898	-0.023128793
23	0xbc9a0e56	-0.018805664
24	0xbd7eb64e	-0.062185578
25	0xbd83a588	-0.06428057
26	0xbdce3e19	-0.10070438
27	0xbcfd9fa5	-0.030959914
28	0xbd97edc2	-0.074183956
29	0xbce53d8a	-0.027983446
30	0xbd80c8e0	-0.06288314
31	0xbd87f475	-0.06638423
32	0xbd7ae5f9	-0.061254475
33	0xbdd0bd69	-0.10192377
34	0xbda7d1c7	-0.08194309
35	0xbdabe261	-0.08392788
36	0xbd14e867	-0.03635445
37	0xbdcd309e	-0.100190386
38	0xbd961ce4	-0.07329729
39	0xbdba86b8	-0.09107727
40	0xbda64077	-0.081177644
41	0xbd56297e	-0.052285664
42	0xbd4753aa	-0.048663773
43	0xbd5bab05	-0.053629894
44	0xbda65ad8	-0.08122796
45	0xbda91198	-0.08255309
46	0xbc8eadab	-0.017416796
47	0xbd049b4b	-0.03237466
48	0xbdfc29f3	-0.12312689
49	0xbe172e9c	-0.14763874
50	0xbdc9e61f	-0.09858345
51	0xbda28de1	-0.079372175
52	0xbd8964bc	-0.06708667
53	0xbd7ff844	-0.062492624
54	0xbdd8deeb	-0.10589393
55	0xbd48b826	-0.049003743
56	0xbd9f5bbe	-0.0778117
57	0xbda318a2	-0.07963683
58	0xbd75293c	-0.059853777
59	0xbdd1e405	-0.102485694
60	0xbd5a5da6	-0.053311966
61	0xbd442157	-0.047883358
62	0xbd55cf19	-0.052199457
63	0xbdb1d35b	-0.08682891
64	0xbd6b42d3	-0.057436775
65	0xbddc24d4	-0.10749212
66	0xbd97774c	-0.07395801
67	0xbd98fbbd	-0.0746989
68	0xbdc29f29	-0.09503014
69	0xbdecc397	-0.11560743
70	0xbd802d69	-0.06258661
71	0xbdba99c3	-0.09111359
72	0xbe03989d	-0.12851186
73	0xbe1edba5	-0.15513475
74	0xbe06bd82	-0.13158229
75	0xbe42fcb5	-0.19041713
76	0xbe0fe84e	-0.14053461
77	0xbe316c5e	-0.17326495
78	0xbdc62022	-0.096740976
79	0xbe1b8afb	-0.15189736
80	0xbdeeb0dd	-0.11654828
81	0xbe142184	-0.1446591
82	0xbd93c4ee	-0.07215296
83	0xbe2276cd	-0.15865631
84	0xbe1b1161	-0.15143348
85	0xbdd9f9ba	-0.10643335
86	0xbe0867af	-0.13320802
87	0xbdf2cd9c	-0.11855623
88	0xbdf14470	-0.117806315
89	0xbe2c0868	-0.16800082
90	0xbdf7714d	-0.12082157
91	0xbe472097	-0.19446026
92	0xbe304f9d	-0.1721787
93	0xbe30448e	-0.17213652
94	0xbe2722d2	-0.16321877
95	0xbe14411a	-0.1447796
96	0xbe003999	-0.12521972
97	0xbdd51170	-0.104037166
98	0xbe072079	-0.13195981
99	0xbe300266	-0.17188415
100	0xbe4e107e	-0.20123479
101	0xbe23a0b4	-0.15979272
102	0xbdf16a34	-0.11787835
103	0xbdf00db5	-0.117213644
104	0xbde38850	-0.11109984
105	0xbe0111a6	-0.12604389
106	0xbe12cc98	-0.14335859
107	0xbe5fbf89	-0.21850409
108	0xbe2a418c	-0.16626567
109	0xbe27337c	-0.16328233
110	0xbe1160ac	-0.14197034
111	0xbd939248	-0.07205635
112	0xbe02e505	-0.12782677
113	0xbe327e04	-0.17430884
114	0xbe29cda0	-0.16582346
115	0xbe4b27b3	-0.19839363
116	0xbe4e9207	-0.20172893
117	0xbe1c1388	-0.15241826
118	0xbe2b59b1	-0.16733433
119	0xbe06c789	-0.13162054
120	0xbddd7475	-0.10813228
121	0xbdb8a5b5	-0.09015981
122	0xbdeb1928	-0.114794075
123	0xbe58d55a	-0.21175137
124	0xbdf6b580	-0.12046337
125	0xbe03ac3f	-0.12858675
126	0xbdc2d721	-0.09513689
127	0xbdb22c72	-0.086998835
128	0xbc1d20ac	-0.009590309
129	0xbe0139dd	-0.1261973
130	0xbe0936f6	-0.13399872
131	0xbda03d1b	-0.07824155
132	0xbdbfb8a4	-0.09361389
133	0xbd9954e2	-0.07486893
134	0xbe159518	-0.14607656
135	0xbe158ac0	-0.1460371
136	0xbd351b29	-0.044215355
137	0xbe1f4d0a	-0.15556732
138	0xbddbf395	-0.10739819
139	0xbe31a209	-0.17346968
140	0xbe1592bc	-0.14606756
141	0xbe3c2a42	-0.18375495
142	0xbe48b9a5	-0.19602068
143	0xbe29af06	-0.16570672
144	0xbdb753b5	-0.08951513
145	0xbe20f2ea	-0.15717664
146	0xbe301aa0	-0.17197657
147	0xbe03e8d8	-0.12881792
148	0xbe279f40	-0.16369343
149	0xbe31783d	-0.17331024
150	0xbe4046c8	-0.18777001
151	0xbdcfd350	-0.101477265
152	0xbe0fc129	-0.14038529
153	0xbe045bea	-0.12925687
154	0xbdf4fb07	-0.11961942
155	0xbe11f10b	-0.14252107
156	0xbe29825c	-0.16553634
157	0xbe45172c	-0.1924712
158	0xbe2c5da8	-0.16832602
159	0xbdb67661	-0.08909298
160	0xbdd1ac65	-0.1023796
161	0xbe13f684	-0.14449507
162	0xbe0904f4	-0.13380796
163	0xbe27e967	-0.1639763
164	0xbe0e56d4	-0.1390031
165	0xbe271c14	-0.16319305
166	0xbe3358dc	-0.17514366
167	0xbde98c8d	-0.11403761
168	0xbd6968a0	-0.056984544
169	0xbdee9796	-0.116500065
170	0xbe1c08ee	-0.15237781
171	0xbe119586	-0.14217195
172	0xbe3625a2	-0.17787793
173	0xbdec8790	-0.11549294
174	0xbe235689	-0.1595098
175	0xbdb8135c	-0.089880675
176	0xbd791783	-0.06081344
177	0xbe13825b	-0.14405195
178	0xbe43f2f7	-0.19135652
179	0xbe03e95f	-0.12881993
180	0xbdf06adb	-0.11739131
181	0xbe3e98bc	-0.18612951
182	0xbe3f4395	-0.18678124
183	0xbdb7c3d7	-0.089729
184	0xbdcb8df7	-0.09939187
185	0xbdafe7a4	-0.08589104
186	0xbdf41db6	-0.119197294
187	0xbe099991	-0.13437487
188	0xbda5ff89	-0.0810538
189	0xbdc2095a	-0.0947444
190	0xbdabae32	-0.083828345
191	0xbdaac875	-0.083390154
192	0xbc09436e	-0.008377893
193	0x3ca82277	0.020524247
194	0xbcb9087f	-0.022587059
195	0xbbe52348	-0.0069927312
196	0x3d5753a1	0.05256999
197	0x3d1abb4b	0.037776273
198	0x3ca443bf	0.020051835
199	0x3daf0cf4	0.085473925
200	0xbd5e677a	-0.0542979
201	0xbcea5489	-0.028604763
202	0x3bb636d5	0.0055607357
203	0x3cbd79fe	0.02312946
204	0xbd100de1	-0.035169486
205	0x3ccd83dc	0.02508729
206	0x3d2e99b8	0.042627066
207	0x3d7b2747	0.061316755
208	0xbca35c46	-0.01994146
209	0xbd350c8d	-0.044201422
210	0x3cf40aef	0.02979037
211	0x3c2ffe7b	0.010741825
212	0xbc21af81	-0.009868504
213	0x3c461164	0.012089107
214	0x3d7c73bf	0.06163382
215	0x3d734904	0.059395805
216	0xbd24b5a8	-0.040212303
217	0xbd6328b4	-0.05545874
218	0xbc8a4f10	-0.016883403
219	0xbce71eae	-0.028212871
220	0xbc5ffbbf	-0.013670861
221	0xbbaf74c0	-0.005354494
222	0x3c2c022f	0.0104985675
223	0x3d5db768	0.054129988
224	0xbb5a97ab	-0.0033354561
225	0x3c0fc208	0.008774288
226	0x3d3793f0	0.04481882
227	0x3b453dbd	0.0030096613
228	0x3c1ff9b4	0.009764124
229	0x3d08a625	0.033361573
230	0x3d0db619	0.03459749
231	0x3d8ad97f	0.06779765
232	0x3cfd5de5	0.030928561
233	0xba6fc84c	-0.0009146973
234	0x3c988a9b	0.01862078
235	0xbc1839a2	-0.0092910845
236	0x3c87ac95	0.016561786
237	0x3d408a07	0.047006633
238	0x3d83db00	0.06438255
239	0x3d013c91	0.0315519
240	0xbc82b210	-0.015954047
241	0x3c1ef306	0.009701496
242	0x3d871044	0.06594899
243	0x3c78bbdf	0.015181511
244	0x3d2d0e39	0.042249892
245	0x3cd92f7e	0.026511904
246	0x3ca56b41	0.020192744
247	0x3d9c5883	0.0763407
248	0x3d816b2b	0.06319269
249	0x3c3e29b6	0.011606624
250	0x3cc2f3e6	0.02379794
251	0x3c4ce385	0.012505417
252	0x3cf53ccc	0.029936217
253	0x3d45531e	0.04817497
254	0x3d3eca67	0.046579745
255	0x3d9dcaf1	0.077047236

bias f4 [6]
0	0x3dc05ac5	0.09392313
1	0x3ee77e99	0.45213774
2	0xbd475b83	-0.048671257
3	0xbdc24ce3	-0.09487321
4	0xbca790e3	-0.02045483
5	0x3ee40233	0.44532928

weight f4 [6, 3, 8, 8]
0	0xbbac09bf	-0.0052501853
1	0xbd9f7a89	-0.077870436
2	0xbd61f756	-0.05516752
3	0xbdc8f66e	-0.09812628
4	0xbdd797af	-0.10526978
5	0xbdc83f25	-0.09777669
6	0xbd9b7ab7	-0.075917654
7	0xbd4d9274	-0.050188497
8	0xbdc4280e	-0.09577952
9	0xbc9459b6	-0.018109184
10	0xbd5dea9d	-0.054178823
11	0xbdf58336	-0.11987917
12	0xbdd6e40d	-0.10492716
13	0xbdbb66bb	-0.09150454
14	0xbd9722f4	-0.07379714
15	0x3c0d9e2c	0.008643668
16	0xbd338f7f	-0.04383802
17	0xbd3a5893	-0.045494627
18	0xbdb84ffe	-0.08999632
19	0xbdc4a99c	-0.09602663
20	0xbdfeeac9	-0.124471255
21	0xbd67f8ba	-0.05663369
22	0xbc93770c	-0.018001102
23	0xbdc14c67	-0.09438401
24	0xbd7782cf	-0.060427483
25	0xbd90aa9e	-0.07063793
26	0xbdba8f87	-0.09109407
27	0xbe30162b	-0.17195956
28	0xbda6e856	-0.08149783
29	0xbe0b3f13	-0.1359828
30	0xbd3bf1ca	-0.045884885
31	0xbde3d8b6	-0.11125319
32	0xbd446e65	-0.047956843
33	0xbaa1f1fb	-0.0012355441
34	0xbde400f8	-0.11132997
35	0xbe3e0e71	-0.18560196
36	0xbe33eb42	-0.17570212
37	0xbddb45e8	-0.10706693
38	0xbe036903	-0.12833028
39	0xbd6d9712	-0.0580054
40	0xbd410be8	-0.047130495
41	0xbdd6ff24	-0.10497883
42	0xbdbf6b69	-0.09346659
43	0xbdbdfe26	-0.092769906
44	0xbd605cff	-0.054776188
45	0xbe29f579	-0.16597547
46	0xbe0a4a85	-0.1350499
47	0xbda7e2e9	-0.081975766
48	0xbcdec3db	-0.027193
49	0xbdb1614b	-0.08661135
50	0xbd34335b	-0.04399429
51	0xbd8ccf5c	-0.06875488
52	0xbc96dce8	-0.018415883
53	0xbdd7bacc	-0.105336756
54	0xbddaa57b	-0.10676094
55	0xbc631ca5	-0.01386181
56	0xbd12210b	-0.035676043
57	0xbd4a2183	-0.049348366
58	0xbd3b2ece	-0.045698933
59	0xbd97803d	-0.073975064
60	0xbe185855	-0.14877446
61	0xbc629e04	-0.013831619
62	0xbd97bff3	-0.07409658
63	0xbca34221	-0.019928994
64	0xbdb1a0c3	-0.08673241
65	0xbd9071e0	-0.0705297
66	0xbe043486	-0.12910661
67	0xbd82a3b2	-0.06378879
68	0xbd5ca0be	-0.053864233
69	0xbd816a35	-0.063190855
70	0xbdc1832e	-0.09448849
71	0x3a297ca1	0.00064654095
72	0xbd9d84c6	-0.0769134
73	0xbdbac03e	-0.091186985
74	0xbda0f1e0	-0.07858634
75	0xbde9960c	-0.11405572
76	0xbd75344a	-0.05986432
77	0xbd57d992	-0.052697726
78	0xbe00c4a9	-0.1257502
79	0xbd8314c9	-0.06400449
80	0xbd195388	-0.037433177
81	0xbd2755ae	-0.040853195
82	0xbdeb6a16	-0.11494844
83	0xbe180fcc	-0.14849776
84	0xbdfaf4c3	-0.12253716
85	0xbdf09c20	-0.117485285
86	0xbdfee06e	-0.1244515
87	0x3be800f3	0.0070801913
88	0xbde638fb	-0.11241337
89	0xbd723331	-0.05913085
90	0xbdc92a59	-0.0982253
91	0xbda241d8	-0.07922715
92	0xbdcc925a	-0.09988852
93	0xbe1c501f	-0.15264939
94	0xbdcc3c0c	-0.099723905
95	0xbd8bbac1	-0.0682273
96	0xbd2e10af	-0.04249638
97	0xbd2828f4	-0.04105468
98	0xbe3985fc	-0.18117517
99	0xbdcd2326	-0.1001647
100	0xbe22ae98	-0.15886915
101	0xbe245f1c	-0.16051906
102	0xbe18ddb2	-0.1492832
103	0xbe00ce31	-0.12578656
104	0xbd99e2b7	-0.075139455
105	0xbddb9b46	-0.107229754
106	0xbe30f39b	-0.17280428
107	0xbdcd022d	-0.100101806
108	0xbdf9a275	-0.12189189
109	0xbd9ea1a0	-0.07745671
110	0xbdca307f	-0.09872531
111	0xbdc35b1b	-0.09538861
112	0x3ba9b8a2	0.0051794806
113	0x3b8d9466	0.004320669
114	0xbd1d2248	-0.03836277
115	0xbd9bd985	-0.07609848
116	0xbdd95efd	-0.10613821
117	0xbdad858f	-0.0847274
118	0xbaa603ee	-0.0012665966
119	0xbc8dfc0f	-0.017332105
120	0x3c87e3c4	0.0165881
121	0xbc1f1af7	-0.009711019
122	0xbbd60e6b	-0.0065324805
123	0xbda05f37	-0.07830661
124	0xbdacc677	-0.08436292
125	0xbddf2b68	-0.10896951
126	0xbd9e134a	-0.07718523
127	0x3cdd5d04	0.027021892
128	0xbd50fbb2	-0.051021285
129	0xbdfe95f7	-0.12430947
130	0xbd8a08d7	-0.06739967
131	0xbe1afbb4	-0.1513508
132	0xbddbd0c8	-0.10733181
133	0xbdd03d5f	-0.101679556
134	0xbe12dcb7	-0.14342009
135	0xbdb5ee84	-0.08883384
136	0xbd8a10ae	-0.06741463
137	0xbd4fd357	-0.05073866
138	0xbe2b8857	-0.16751228
139	0xbe171cff	-0.14757155
140	0xbe48ef29	-0.19622482
141	0xbe305178	-0.17218578
142	0xbe02791d	-0.12741514
143	0xbda44d23	-0.08022525
144	0xbd9a5356	-0.07535426
145	0xbe0c6ad0	-0.1371262
146	0xbdef9aef	-0.11699473
147	0xbe49ff2a	-0.19726244
148	0xbe206f77	-0.1566752
149	0xbe0b519d	-0.13605352
150	0xbe1c9320	-0.15290499
151	0xbe046415	-0.12928803
152	0xbd366da9	-0.044538174
153	0xbe1bf584	-0.15230376
154	0xbe2fea88	-0.1717931
155	0xbe46522f	-0.19367288
156	0xbe3fde70	-0.18737197
157	0xbde1a4a6	-0.11017732
158	0xbdfd2866	-0.12361221
159	0xbdea3736	-0.11436312
160	0xbde9c3ad	-0.11414275
161	0xbe5e95d9	-0.2173685
162	0xbe6ab667	-0.22921143
163	0xbe42f426	-0.19038448
164	0xbe5707bb	-0.20999043
165	0xbe65b621	-0.22432758
166	0xbe237f51	-0.15966536
167	0xbe26d910	-0.1629374
168	0xbdc4c6c7	-0.09608226
169	0xbe0e4d05	-0.13896568
170	0xbe39fe41	-0.18163396
171	0xbe22723c	-0.1586389
172	0xbe169fbd	-0.14709373
173	0xbe367f86	-0.17822084
174	0xbdf050b5	-0.11734144
175	0xbe188001	-0.1489258
176	0xbd944644	-0.072399646
177	0xbdd18b1d	-0.10231612
178	0xbe341142	-0.17584708
179	0xbe002035	-0.12512286
180	0xbe4d116d	-0.20026179
181	0xbdf2dfa9	-0.11859066
182	0xbd9bb5c9	-0.07603032
183	0xbd191f57	-0.037383404
184	0xbce6aceb	-0.028158626
185	0xbcf2d081	-0.029640438
186	0xbe298017	-0.16552769
187	0xbda520a6	-0.08062868
188	0xbddddbc9	-0.10832936
189	0xbe00ab41	-0.12565328
190	0xbd11a578	-0.035558194
191	0xbda8a97b	-0.08235451
192	0xbcf2fd48	-0.02966179
193	0xbc9b8d6c	-0.018988334
194	0xbd15bd44	-0.03655745
195	0x3ba6acb2	0.005086505
196	0xbd6d6e9c	-0.057966813
197	0xbc83ab42	-0.016072873
198	0x3cd6c507	0.026216997
199	0x3b5020da	0.0031757862
200	0x3c9525f3	0.018206572
201	0xbde5ae57	-0.11214893
202	0xbd1f9719	-0.038962457
203	0xba1c1e44	-0.00059554377
204	0xbd6f20f4	-0.058381036
205	0xbc8195ff	-0.015818594
206	0xbc8086ef	-0.015689341
207	0xbd938797	-0.07203596
208	0xbd12829d	-0.035769094
209	0xbd1b16bc	-0.037863478
210	0xbd2a05c7	-0.041509416
211	0xbd953e60	-0.07287288
212	0xbd3a2ec1	-0.045454744
213	0xbde52851	-0.1118933
214	0xbbc128dd	-0.005894764
215	0x3bfaace6	0.0076500056
216	0xbda85556	-0.082194015
217	0xbdbfc310	-0.09363377
218	0xbd872815	-0.06599442
219	0xbce5f32a	-0.028070051
220	0xbd08d53a	-0.033406474
221	0xbd891342	-0.06693126
222	0xbc0eb3fb	-0.008709903
223	0xbdf72bf1	-0.12068928
224	0xbcaef1ed	-0.021355594
225	0xbbfc7472	-0.007704311
226	0xbd1b4d21	-0.037915353
227	0xbd5c4056	-0.053772293
228	0xbde49b90	-0.11162484
229	0xbe08e297	-0.13367687
230	0xbc7218f0	-0.014776453
231	0xbd68e9fb	-0.056863766
232	0xbc4e796a	-0.01260219
233	0x3c0bf919	0.008543276
234	0xbd9a64ea	-0.07538779
235	0xbd6a92ee	-0.05726903
236	0xbd5065fc	-0.05087851
237	0xbde40419	-0.11133594
238	0xbcac80b4	-0.021057464
239	0xbd14b103	-0.036301624
240	0xbd5d7236	-0.054064
241	0xbc883c36	-0.016630273
242	0xbcfadca4	-0.030622788
243	0xbd44d1b6	-0.04805156
244	0xbb5beee2	-0.0033559133
245	0xbc1f19c4	-0.009710733
246	0xbc1a7c5e	-0.0094290655
247	0xbd2acb45	-0.04169776
248	0xbd7a7ac4	-0.061152235
249	0x3d2f63d1	0.0428198
250	0xbd9dbe6b	-0.07702335
251	0x3a93c8b6	0.0011275026
252	0xbb0dd1ab	-0.0021639864
253	0xbdcd050f	-0.100107305
254	0xbd42b9d9	-0.04754052
255	0xbb2c8582	-0.0026324694

bias f4 [3]
0	0xbdb42415	-0.087959446
1	0xbe0be057	-0.13659798
2	0xbeac2a41	-0.33625987
